onnxruntime/test/python/transformers/test_data/models/whisper/oai_fp16_decoder_attention_no_past_split_bias.onnx (onnx, 5851 bytes, 17 tensors)

attn_ln.weight f2 [10]
00000000: 003c 003c 003c 003c 003c 003c 003c 003c
00000010: 003c 003c
1.0 1.0 1.0 1.0 1.0 1.0 1.0 1.0
1.0 1.0

attn_ln.bias f2 [10]
00000000: 0000 0000 0000 0000 0000 0000 0000 0000
00000010: 0000 0000
0.0 0.0 0.0 0.0 0.0 0.0 0.0 0.0
0.0 0.0

onnx::Add_260 f2 [10]
00000000: 5624 40b2 2624 da30 0531 a0b4 3eab 85b3
00000010: 51b0 4b2f
0.01694 -0.1953 0.0162 0.1516 0.1569 -0.289 -0.05658 -0.235
-0.1349 0.11395

onnx::MatMul_261 f2 [10, 10]
00000000: c326 31b4 a4ac 18af d9b2 92b2 8034 a728
00000010: 7932 c0b1 0e29 5ab4 1aaf e833 feb4 0733
00000020: 2fad d5ac 0526 58aa f5b3 0c35 2734 49ab
00000030: 10b4 a6b3 7430 b4b1 c7b0 4c34 5d26 6c32
00000040: ac31 e12f fd33 f0b0 8234 aeb1 a634 b122
00000050: 0233 ffb2 17b2 312b 7a31 e3b4 b22e c9b3
00000060: 2330 28b3 8f34 eb2f 8c34 4e30 bf34 bfb1
00000070: 0f35 cb32 afb3 c4ae f331 a433 e430 e1ae
00000080: 0e34 2934 4031 3233 d834 7ead 6d29 0f35
00000090: 8431 ef30 85b4 2534 4a32 9ba8 af33 cfab
000000a0: ba30 6d34 58b2 11b3 e8b2 3e33 15af dbb1
000000b0: 60af bf27 ecb0 d733 ce2d 922c 8aaa d033
000000c0: db30 d233 b031 ae34
0.02641 -0.262 -0.0725 -0.11084 -0.214 -0.2053 0.2812 0.03635
0.2023 -0.1797 0.0395 -0.272 -0.11096 0.2471 -0.312 0.2196
-0.081 -0.0755 0.02351 -0.04956 -0.2487 0.3154 0.2595 -0.05692
-0.254 -0.239 0.1392 -0.1782 -0.1493 0.2686 0.02486 0.2007
0.1772 0.1231 0.2496 -0.1543 0.2817 -0.1775 0.2905 0.01307
0.219 -0.2186 -0.1903 0.05618 0.1711 -0.3054 0.1046 -0.2433
0.1293 -0.2236 0.285 0.1237 0.2842 0.1345 0.2966 -0.1796
0.3162 0.2123 -0.2401 -0.1057 0.1859 0.2388 0.1528 -0.1075
0.2534 0.26 0.1641 0.2249 0.3027 -0.0858 0.0424 0.3162
0.1724 0.1542 -0.2825 0.259 0.1965 -0.03598 0.2401 -0.061
0.1477 0.2766 -0.1982 -0.2208 -0.2158 0.2263 -0.11066 -0.183
-0.11523 0.03026 -0.1538 0.245 0.0907 0.0714 -0.0511 0.2441
0.1517 0.2444 0.1777 0.2925

onnx::Add_263 f2 [10]
00000000: 0d35 f134 a2b3 1ab4 acb3 3f96 29ad a0b2
00000010: 42af a62b
0.3157 0.3088 -0.2385 -0.2563 -0.2397 -0.001525 -0.0806 -0.207
-0.1134 0.05975

onnx::MatMul_264 f2 [10, 10]
00000000: 30b3 ddb4 3234 f8b4 7130 25b3 67ac b0b4
00000010: d3ad 292e 862f ebb4 7331 e2af fe34 03b1
00000020: 6129 2333 4232 e2ac 4b34 1bac 0735 5e2c
00000030: d231 2bb4 0431 1231 9ead 182f 4f25 ce32
00000040: 1d31 f2b3 8fa8 4831 17b3 fd31 8baf 55b3
00000050: bfb2 cab4 aeb2 742e 192f 20a8 3f34 4834
00000060: 182d f3b1 40af 3534 3934 6f31 f7b4 ca33
00000070: 67a8 74b1 2e2f 23b1 6b2c 0cb0 5a24 a429
00000080: 52b4 4332 3db4 642e f2b0 a634 b7b3 ed2d
00000090: cc30 c5b2 b930 9931 7ab1 2430 2827 72ad
000000a0: 0731 6223 0fb4 d8b3 bbb1 3521 7a34 fbad
000000b0: dd31 1393 98b4 90b4 d2ad 3eae de30 42ae
000000c0: a134 c62e 07a8 e7b0
-0.2246 -0.304 0.2622 -0.3105 0.1388 -0.2233 -0.0688 -0.293
-0.091 0.09625 0.11755 -0.3074 0.1703 -0.12317 0.312 -0.1566
0.04202 0.223 0.1956 -0.0763 0.2683 -0.06415 0.3142 0.06824
0.1819 -0.2605 0.1567 0.1584 -0.08777 0.11084 0.02074 0.2126
0.1598 -0.2483 -0.0356 0.165 -0.2216 0.1871 -0.11786 -0.2291
-0.2108 -0.2993 -0.2087 0.1008 0.1109 -0.03223 0.2654 0.2676
0.0796 -0.1859 -0.1133 0.263 0.264 0.1698 -0.3103 0.2434
-0.0344 -0.1704 0.1122 -0.1605 0.06903 -0.1265 0.017 0.04407
-0.27 0.1957 -0.265 0.09985 -0.1545 0.2905 -0.2411 0.0926
0.1499 -0.2115 0.1476 0.1749 -0.1711 0.1294 0.02795 -0.0851
0.1571 0.01442 -0.2537 -0.2451 -0.1791 0.01017 0.2798 -0.09344
0.1832 -0.0008636 -0.287 -0.2852 -0.09094 -0.09753 0.1521 -0.0978
0.2893 0.10583 -0.03146 -0.1532

onnx::MatMul_266 f2 [10, 10]
00000000: 4ab1 cdb4 edb4 4b34 c3ad 0faa 45b4 c8a7
00000010: afb0 5b32 7c2c dab4 f9b1 da31 31b4 76b4
00000020: a3af e2b3 c934 422d a4ac fc34 e6ae 24ae
00000030: 97b4 92b4 f6b2 3834 ca2c 662e e7b0 67b2
00000040: 1831 b7b2 122d b934 cb34 77b0 f0b4 8527
00000050: 9029 c32b 8cb2 06a6 21a6 7930 59b0 2e2f
00000060: c3ad 8c2f 2934 fda6 c534 3034 1cb1 6930
00000070: 9fb0 6734 e5b2 eeac d7b2 43ac 82ac cbae
00000080: 172c 61b4 4d31 1a31 7034 07b0 8523 85ac
00000090: 45ab b1b4 b02f af34 aeb0 bb29 afaa bbb4
000000a0: 77af 6e32 ee33 2630 0634 cb34 fcb0 4e34
000000b0: 9db4 a0b3 f734 bd23 1631 ed34 db33 9134
000000c0: 15a7 7129 17a5 6330
-0.1653 -0.3 -0.3079 0.2683 -0.09 -0.04733 -0.2668 -0.0304
-0.1464 0.1986 0.07007 -0.3032 -0.1866 0.1829 -0.262 -0.2788
-0.1193 -0.2463 0.299 0.08215 -0.0725 0.3115 -0.1078 -0.09595
-0.2869 -0.2856 -0.2175 0.2637 0.0748 0.1 -0.1532 -0.2001
0.1592 -0.2098 0.0792 0.2952 0.2996 -0.1395 -0.3086 0.02937
0.04346 0.06064 -0.2046 -0.02353 -0.02394 0.1398 -0.1359 0.1122
-0.09 0.1179 0.26 -0.0273 0.298 0.2617 -0.1597 0.1378
-0.1444 0.2751 -0.2155 -0.077 -0.2137 -0.0666 -0.07043 -0.10614
0.0639 -0.2737 0.1656 0.1594 0.2773 -0.1259 0.01469 -0.0706
-0.0568 -0.2932 0.1201 0.2927 -0.1462 0.04477 -0.05222 -0.2957
-0.11664 0.2009 0.2478 0.1296 0.2515 0.2996 -0.1558 0.269
-0.2883 -0.2383 0.3103 0.015114 0.1589 0.3079 0.2455 0.2854
-0.02766 0.0425 -0.01988 0.1371

onnx::Add_268 f2 [10]
00000000: 04b4 ef24 0334 baad c330 5934 b632 4fb1
00000010: 70a8 5eae
-0.251 0.01927 0.2507 -0.0895 0.1488 0.2717 0.2097 -0.1659
-0.03467 -0.0995

onnx::MatMul_269 f2 [10, 10]
00000000: feb1 8131 13ad e5b4 6f34 1130 bcb0 24a9
00000010: 1a34 e2ab cf29 22b0 64ac d5a9 bdb2 3eb2
00000020: 0c2f ceb0 7fb3 0434 762e 4034 7133 1cab
00000030: 61a8 8332 87b4 68b4 7caa 94ac bb25 f7b2
00000040: d8b3 8f2e 59a4 cb34 9c2c a4b4 fdb1 5f27
00000050: 90b2 40b4 4d28 f12f 8430 0627 6ab2 f134
00000060: c8b1 13b3 d734 90b0 c234 c533 eb32 bab4
00000070: 60a8 0cad cd2c 4f34 e2b1 8b2a 90a9 08aa
00000080: 6aaa 1b33 3529 0b24 c034 3ca9 2934 a934
00000090: db33 6ca2 31b4 81b3 4f34 7d2d 0eb4 67b3
000000a0: 06b4 d5b0 3cae ee32 0431 a72c d4b0 e132
000000b0: 2032 ed2d deac 3d2f 1334 7aad 0e2e e229
000000c0: 7c32 5134 3fb1 32b3
-0.1873 0.172 -0.0793 -0.306 0.277 0.1271 -0.148 -0.04016
0.2563 -0.06158 0.04538 -0.1292 -0.0686 -0.04556 -0.2106 -0.1951
0.1101 -0.1501 -0.2343 0.251 0.10095 0.2656 0.2325 -0.05554
-0.0342 0.2035 -0.283 -0.2754 -0.05066 -0.07153 0.02238 -0.2177
-0.2451 0.1025 -0.01698 0.2996 0.072 -0.29 -0.1871 0.0288
-0.2051 -0.2656 0.0336 0.1241 0.1411 0.02744 -0.2004 0.3088
-0.1807 -0.2211 0.3025 -0.1426 0.2974 0.2428 0.2162 -0.2954
-0.03418 -0.07886 0.075 0.2693 -0.1838 0.05112 -0.04346 -0.04712
-0.0501 0.222 0.04068 0.0158 0.2969 -0.0409 0.26 0.2913
0.2455 -0.01254 -0.262 -0.2345 0.2693 0.08575 -0.2534 -0.2313
-0.2515 -0.151 -0.0974 0.2166 0.1567 0.0727 -0.1509 0.215
0.1914 0.0926 -0.07605 0.1131 0.2546 -0.0856 0.0946 0.04596
0.2026 0.2698 -0.164 -0.2249

onnx::Add_286 f2 [10]
00000000: e221 0233 46b0 61b1 6930 67b4 311d a7b0
00000010: ae32 b6b4
0.01149 0.219 -0.1335 -0.1681 0.1378 -0.2751 0.00507 -0.1454
0.2087 -0.2944

onnx::MatMul_287 f2 [10, 10]
00000000: 12b4 3c2a a32e 82b4 638c 8030 bfb0 0335
00000010: 6a32 52ab 4808 1132 6fb4 3732 892e 53b0
00000020: feae 30ae 19ac 9d32 9d33 90b4 8c31 3b28
00000030: cd34 0934 7b2d 8031 0f28 9624 4334 9334
00000040: 4431 ac24 622d 1ab3 09b3 caad 87af a52f
00000050: 8e27 482f 4732 9bb1 69af 5d13 ae2a eaa9
00000060: 3db4 6930 992c 17b3 74b2 3fb0 2ab0 8c34
00000070: 6130 dcaa 1830 f7ac 61b0 5cac 0a35 ebad
00000080: 79b2 0835 faaf 0698 2e29 6130 a333 6434
00000090: 00b2 eeb4 04b3 ddb1 3434 a5af 0db0 7833
000000a0: 36b0 c4b3 0d35 3524 85aa 362b 54a5 be2c
000000b0: d8ae 7323 08b3 eaad dbb4 292b 29ab c828
000000c0: 9730 1a22 4b2d ec2b
-0.2544 0.0487 0.1037 -0.2817 -0.0002677 0.1406 -0.1483 0.3132
0.2004 -0.0572 0.0001307 0.1896 -0.277 0.1942 0.1021 -0.1351
-0.10925 -0.0967 -0.064 0.2067 0.2379 -0.2852 0.1733 0.03305
0.3 0.2522 0.08563 0.1719 0.0317 0.01791 0.2664 0.286
0.1646 0.01825 0.0841 -0.2219 -0.2198 -0.09045 -0.1176 0.11945
0.02951 0.1138 0.1962 -0.1752 -0.1158 0.000899 0.0522 -0.0462
-0.265 0.1378 0.07184 -0.2216 -0.2017 -0.1327 -0.1301 0.2842
0.1368 -0.0536 0.1279 -0.0776 -0.1368 -0.0681 0.315 -0.09247
-0.2023 0.3145 -0.12463 -0.001965 0.04047 0.1368 0.2386 0.2744
-0.1875 -0.308 -0.2192 -0.1832 0.2627 -0.11945 -0.1266 0.2334
-0.1316 -0.2427 0.3157 0.01643 -0.05093 0.05634 -0.02081 0.0741
-0.10693 0.01455 -0.2197 -0.0924 -0.3035 0.05594 -0.05594 0.03735
0.1434 0.01192 0.0827 0.0619

onnx::Add_289 f2 [10]
00000000: 3bb3 5b2c 9b34 fab4 08b5 3029 9f33 28b2
00000010: 752c 1d33
-0.226 0.06805 0.2878 -0.311 -0.3145 0.04053 0.2382 -0.1924
0.06964 0.2223

onnx::MatMul_290 f2 [10, 10]
00000000: 2332 6829 0eb0 a6b1 3c34 2c31 ef30 0135
00000010: 852c 28b2 0135 a5ab aab4 8034 f934 1b2f
00000020: 0eb5 fdb4 a1b2 fcaf 182c 0fb5 5db3 522d
00000030: 9a34 882a abb4 dfb4 05b0 23b4 65a5 2524
00000040: c034 1f33 cb32 e42c 3532 d732 2b2b 0bb4
00000050: fb34 cca0 e631 56b0 1d33 7234 7932 7e34
00000060: f5af 0e32 53b0 172a 7031 aa30 39a9 5f2f
00000070: 94b4 3332 68aa 2531 7da6 c133 a031 7cb4
00000080: dab3 70b4 af2f ba32 ccb4 6429 6eb0 eb34
00000090: 05b4 24a5 83af 58b3 e7b3 43b4 c5b4 87b1
000000a0: 96a9 01b2 4028 c02e 8ba8 7630 aa33 5333
000000b0: d72f bc2e 662c 0ca5 b634 122e 78b1 8429
000000c0: 5a2e c7b4 49b0 4623
0.1918 0.04224 -0.1267 -0.1765 0.2646 0.1616 0.1542 0.3127
0.0706 -0.1924 0.3127 -0.05972 -0.2915 0.2812 0.3108 0.111
-0.316 -0.3118 -0.2072 -0.12476 0.06396 -0.3162 -0.2301 0.0831
0.2876 0.05103 -0.2917 -0.3044 -0.1256 -0.2585 -0.02107 0.01619
0.2969 0.2225 0.2123 0.0764 0.194 0.2137 0.056 -0.2527
0.3113 -0.00937 0.1843 -0.1355 0.2223 0.2778 0.2023 0.2808
-0.1243 0.1892 -0.1351 0.04758 0.1699 0.1458 -0.0408 0.1152
-0.2861 0.1937 -0.05005 0.1608 -0.02534 0.2423 0.1758 -0.2803
-0.2454 -0.2773 0.12006 0.2102 -0.2998 0.0421 -0.1384 0.3074
-0.2512 -0.02008 -0.1174 -0.2295 -0.247 -0.2664 -0.298 -0.1727
-0.04364 -0.1876 0.0332 0.10547 -0.0355 0.1394 0.2395 0.2289
0.1225 0.1052 0.0687 -0.01971 0.2944 0.09485 -0.1709 0.0431
0.09924 -0.2986 -0.1339 0.014206

onnx::Add_292 f2 [10]
00000000: dc2c 00a8 0431 6cb2 f334 08b5 d9b4 c8ac
00000010: 2234 0e28
0.0759 -0.03125 0.1567 -0.2007 0.3093 -0.3145 -0.303 -0.0747
0.2583 0.03168

onnx::MatMul_293 f2 [10, 10]
00000000: 3d2e e0ad fb26 e2a6 da2a c331 0034 72b2
00000010: 9fab 95b1 612c f4b4 e633 e4b3 b82a 52b2
00000020: e329 9f34 79b0 5a34 0c35 7e2c 962b f797
00000030: 2231 dfb1 67a6 38ad 6d32 3830 9832 82b1
00000040: 82ae 33b4 f9b2 7930 6dae ccb1 6133 db34
00000050: b1b1 bc29 db32 5bac b7a5 aca5 18a4 dd30
00000060: 72b4 3ab0 ff26 92b2 6c24 dd31 a931 c7b4
00000070: 5e2b 092a 52a7 7fb2 2b31 9db3 992b 09b3
00000080: 6034 d6b1 bbb3 0233 2834 bfa8 7634 dea6
00000090: 82ae d2b2 e8a5 1b30 d6ac 3930 d72f c4b4
000000a0: 09b5 ccae a614 f1ac dbb1 ddae 35b4 e0b4
000000b0: 4334 ef2f 7b31 eb31 c8ab 8cad d12d fc32
000000c0: 3632 6632 f0ae 7733
0.0975 -0.0918 0.02727 -0.02689 0.05353 0.18 0.25 -0.2014
-0.05954 -0.1744 0.0684 -0.3096 0.2468 -0.2466 0.0525 -0.1975
0.046 0.2888 -0.1398 0.272 0.3154 0.0702 0.05927 -0.001945
0.1604 -0.1835 -0.02501 -0.08154 0.2008 0.1318 0.206 -0.1721
-0.1017 -0.2625 -0.2179 0.1398 -0.1004 -0.1812 0.2306 0.3035
-0.1779 0.0448 0.2142 -0.06805 -0.02232 -0.02216 -0.01599 0.152
-0.2778 -0.1321 0.02733 -0.2053 0.01727 0.1832 0.1769 -0.2986
0.05756 0.04715 -0.0286 -0.203 0.1615 -0.2379 0.05936 -0.2198
0.2734 -0.1824 -0.2416 0.219 0.2598 -0.03708 0.2788 -0.02682
-0.1017 -0.2131 -0.02307 0.1283 -0.07556 0.132 0.1225 -0.2979
-0.3147 -0.1062 0.001135 -0.0772 -0.183 -0.10724 -0.263 -0.3047
0.2664 0.12396 0.1713 0.1849 -0.0608 -0.0867 0.0909 0.2183
0.1941 0.2 -0.1084 0.2333

Attention_0_qkv_weight f2 [10, 30]
00000000: d998 1eae 5a2f e4af 4224 7932 9430 ccb3
00000010: b7b4 6b2f 25b0 f12f 4eac cb34 bcb4 ccab
00000020: 7334 5828 0434 d022 d298 d0a5 161b af2e
00000030: 54b1 d4b1 cab0 2821 2ab2 e2b0 6e31 f5ab
00000040: 3434 5f34 30b1 0835 1230 6baf 7f34 1e31
00000050: 0132 d924 532c 6d32 45b4 f3ab 21b0 3dac
00000060: ed32 8632 00ac 0135 2c34 9733 5a29 d131
00000070: c2b0 cfb2 d82e 462b 2ab4 d5b4 2aac 8fb2
00000080: d92a 0430 ffb1 f42f b233 3e33 28b2 f0b0
00000090: 98b2 ce34 1bac 8ab4 9234 3a33 23b3 a6b3
000000a0: 1429 502f 0e29 84ae 2f34 5c31 c9b4 17b4
000000b0: 662e 42b1 72b3 b4b2 9333 a9b0 b9b4 7829
000000c0: 1d2e 3134 0cb5 912f 9734 ca30 28a4 dba5
000000d0: 8d31 5eb4 542f a62d 3923 f2b2 9fac 9620
000000e0: 8834 2610 ebad c433 5f2c 0834 ae9e aa2c
000000f0: ccaf 2cb0 86aa 12b3 50b3 c932 8e31 6734
00000100: 942b 02b5 ef32 dab4 3e33 8cb4 7931 55aa
00000110: 91b4 dd30 22b3 e0b1 8d98 62b4 3132 3631
00000120: 02b2 572f aeb1 972a 8dac f32b 6d2d ff21
00000130: 4828 bdb4 38b1 f5b1 1ca9 7734 d2aa 90b2
00000140: 44b4 ffb1 29a8 ccb0 e1b4 301c 6732 262f
00000150: 92b1 1533 2a29 0331 66b2 e5b4 7caf c2ae
00000160: 83b4 3334 3db2 83b3 6a9e 0030 9534 e8b1
00000170: 6232 8b2b 2f22 072c a9aa 0d31 09ad 11ad
00000180: 8020 e432 5032 99b0 aca8 deac e6b1 46af
00000190: eab3 35b3 8a30 5133 04b5 a8ad 7034 c9ae
000001a0: ff32 bd2a 0334 1232 b2b4 5934 ef31 d8b3
000001b0: b02c 66b4 a2b0 3c2c 4e23 eeb0 fca6 3398
000001c0: ebb3 a02f 84b0 42ac eb2e 4534 4eb1 bfad
000001d0: 27b3 2fb4 9130 fb2d 92b2 f62d 88b3 4f30
000001e0: 2fa7 dcb2 5fb2 8430 7db0 03b3 4732 7227
000001f0: c82f e5b3 e829 15af 192c 08b1 47ac 8eb4
-0.002367 -0.0956 0.11487 -0.1233 0.01663 0.2023 0.1431 -0.2437
-0.2947 0.1159 -0.1295 0.1241 -0.06726 0.2996 -0.296 -0.0609
0.278 0.03394 0.251 0.013306 -0.002354 -0.0227 0.00346 0.10443
-0.1665 -0.1821 -0.1497 0.01007 -0.1926 -0.1526 0.1697 -0.06216
0.2627 0.2732 -0.1621 0.3145 0.1272 -0.1159 0.281 0.1599
0.1876 0.01894 0.06757 0.2008 -0.2668 -0.0621 -0.129 -0.0662
0.2164 0.2039 -0.0625 0.3127 0.2607 0.2372 0.0418 0.1818
-0.1487 -0.2128 0.10693 0.05682 -0.2603 -0.302 -0.06506 -0.205
0.0535 0.1255 -0.1874 0.12427 0.2405 0.2263 -0.1924 -0.1543
-0.206 0.3003 -0.06415 -0.2837 0.2856 0.2258 -0.223 -0.239
0.03967 0.11426 0.0395 -0.1018 0.2615 0.1675 -0.299 -0.2556
0.1 -0.1643 -0.2327 -0.2095 0.2367 -0.1456 -0.2952 0.04272
0.0955 0.262 -0.3154 0.1182 0.2869 0.1497 -0.01624 -0.02287
0.1735 -0.273 0.1145 0.08826 0.01411 -0.217 -0.0722 0.00896
0.2832 0.0005064 -0.09247 0.2427 0.0683 0.252 -0.006523 0.0729
-0.1218 -0.1304 -0.05096 -0.221 -0.2285 0.212 0.1736 0.2751
0.0592 -0.313 0.2167 -0.3032 0.2263 -0.2842 0.171 -0.04947
-0.2854 0.152 -0.2229 -0.1836 -0.002222 -0.274 0.1935 0.1628
-0.1877 0.1147 -0.1775 0.05148 -0.0711 0.0621 0.0848 0.01171
0.03345 -0.2961 -0.1631 -0.1862 -0.03992 0.279 -0.05328 -0.2051
-0.2666 -0.1874 -0.0325 -0.1499 -0.305 0.00409 0.2001 0.1117
-0.1741 0.2213 0.04034 0.1566 -0.2 -0.306 -0.11694 -0.1056
-0.282 0.2625 -0.195 -0.2347 -0.006264 0.125 0.2864 -0.1846
0.1995 0.05893 0.01208 0.0629 -0.05203 0.1578 -0.0787 -0.07916
0.00879 0.2153 0.1973 -0.1437 -0.0365 -0.07605 -0.1843 -0.11365
-0.2473 -0.2252 0.1418 0.2286 -0.3135 -0.0884 0.2773 -0.106
0.2186 0.05264 0.2507 0.1897 -0.2935 0.2717 0.1854 -0.2451
0.07324 -0.275 -0.1448 0.06616 0.01427 -0.154 -0.02728 -0.00205
-0.2474 0.11914 -0.1411 -0.0665 0.1081 0.2668 -0.1658 -0.0898
-0.2235 -0.2615 0.1427 0.09344 -0.2053 0.09314 -0.2354 0.1346
-0.02806 -0.2144 -0.1991 0.1411 -0.1403 -0.2191 0.1962 0.02908
0.1216 -0.2467 0.04614 -0.11066 0.064 -0.1572 -0.06683 -0.2847

Attention_0_qkv_bias f2 [30]
00000000: c334 d232 6ab0 18ad d2b4 d29d 9fb3 ceb3
00000010: 76a4 142a 0000 0000 0000 0000 0000 0000
00000020: 0000 0000 0000 0000 26b4 3daa 072f 62af
00000030: af2f bd32 49b1 631a 2f30 5826
0.2976 0.2131 -0.138 -0.0796 -0.3013 -0.005684 -0.2382 -0.2439
-0.01743 0.0475 0.0 0.0 0.0 0.0 0.0 0.0
0.0 0.0 0.0 0.0 -0.2593 -0.04874 0.1098 -0.11536
0.12006 0.2106 -0.1652 0.003119 0.1307 0.02478
