onnxruntime/test/python/transformers/test_data/models/whisper/oai_fp16_encoder_self_attention.onnx (onnx, 3161 bytes, 10 tensors)

attn_ln.weight f2 [10]
000000 00 3c 00 3c 00 3c 00 3c 00 3c 00 3c 00 3c 00 3c
       1.0 1.0 1.0 1.0 1.0 1.0 1.0 1.0
000010 00 3c 00 3c
       1.0 1.0

attn_ln.bias f2 [10]
000000 00 00 00 00 00 00 00 00 00 00 00 00 00 00 00 00
       0.0 0.0 0.0 0.0 0.0 0.0 0.0 0.0
000010 00 00 00 00
       0.0 0.0

onnx::Add_142 f2 [10]
000000 56 24 40 b2 26 24 da 30 05 31 a0 b4 3e ab 85 b3
       0.01694 -0.1953 0.0162 0.1516 0.1569 -0.289 -0.05658 -0.235
000010 51 b0 4b 2f
       -0.1349 0.11395

onnx::MatMul_143 f2 [10, 10]
000000 c3 26 31 b4 a4 ac 18 af d9 b2 92 b2 80 34 a7 28
       0.02641 -0.262 -0.0725 -0.11084 -0.214 -0.2053 0.2812 0.03635
000010 79 32 c0 b1 0e 29 5a b4 1a af e8 33 fe b4 07 33
       0.2023 -0.1797 0.0395 -0.272 -0.11096 0.2471 -0.312 0.2196
000020 2f ad d5 ac 05 26 58 aa f5 b3 0c 35 27 34 49 ab
       -0.081 -0.0755 0.02351 -0.04956 -0.2487 0.3154 0.2595 -0.05692
000030 10 b4 a6 b3 74 30 b4 b1 c7 b0 4c 34 5d 26 6c 32
       -0.254 -0.239 0.1392 -0.1782 -0.1493 0.2686 0.02486 0.2007
000040 ac 31 e1 2f fd 33 f0 b0 82 34 ae b1 a6 34 b1 22
       0.1772 0.1231 0.2496 -0.1543 0.2817 -0.1775 0.2905 0.01307
000050 02 33 ff b2 17 b2 31 2b 7a 31 e3 b4 b2 2e c9 b3
       0.219 -0.2186 -0.1903 0.05618 0.1711 -0.3054 0.1046 -0.2433
000060 23 30 28 b3 8f 34 eb 2f 8c 34 4e 30 bf 34 bf b1
       0.1293 -0.2236 0.285 0.1237 0.2842 0.1345 0.2966 -0.1796
000070 0f 35 cb 32 af b3 c4 ae f3 31 a4 33 e4 30 e1 ae
       0.3162 0.2123 -0.2401 -0.1057 0.1859 0.2388 0.1528 -0.1075
000080 0e 34 29 34 40 31 32 33 d8 34 7e ad 6d 29 0f 35
       0.2534 0.26 0.1641 0.2249 0.3027 -0.0858 0.0424 0.3162
000090 84 31 ef 30 85 b4 25 34 4a 32 9b a8 af 33 cf ab
       0.1724 0.1542 -0.2825 0.259 0.1965 -0.03598 0.2401 -0.061
0000a0 ba 30 6d 34 58 b2 11 b3 e8 b2 3e 33 15 af db b1
       0.1477 0.2766 -0.1982 -0.2208 -0.2158 0.2263 -0.11066 -0.183
0000b0 60 af bf 27 ec b0 d7 33 ce 2d 92 2c 8a aa d0 33
       -0.11523 0.03026 -0.1538 0.245 0.0907 0.0714 -0.0511 0.2441
0000c0 db 30 d2 33 b0 31 ae 34
       0.1517 0.2444 0.1777 0.2925

onnx::Add_145 f2 [10]
000000 0d 35 f1 34 a2 b3 1a b4 ac b3 3f 96 29 ad a0 b2
       0.3157 0.3088 -0.2385 -0.2563 -0.2397 -0.001525 -0.0806 -0.207
000010 42 af a6 2b
       -0.1134 0.05975

onnx::MatMul_146 f2 [10, 10]
000000 30 b3 dd b4 32 34 f8 b4 71 30 25 b3 67 ac b0 b4
       -0.2246 -0.304 0.2622 -0.3105 0.1388 -0.2233 -0.0688 -0.293
000010 d3 ad 29 2e 86 2f eb b4 73 31 e2 af fe 34 03 b1
       -0.091 0.09625 0.11755 -0.3074 0.1703 -0.12317 0.312 -0.1566
000020 61 29 23 33 42 32 e2 ac 4b 34 1b ac 07 35 5e 2c
       0.04202 0.223 0.1956 -0.0763 0.2683 -0.06415 0.3142 0.06824
000030 d2 31 2b b4 04 31 12 31 9e ad 18 2f 4f 25 ce 32
       0.1819 -0.2605 0.1567 0.1584 -0.08777 0.11084 0.02074 0.2126
000040 1d 31 f2 b3 8f a8 48 31 17 b3 fd 31 8b af 55 b3
       0.1598 -0.2483 -0.0356 0.165 -0.2216 0.1871 -0.11786 -0.2291
000050 bf b2 ca b4 ae b2 74 2e 19 2f 20 a8 3f 34 48 34
       -0.2108 -0.2993 -0.2087 0.1008 0.1109 -0.03223 0.2654 0.2676
000060 18 2d f3 b1 40 af 35 34 39 34 6f 31 f7 b4 ca 33
       0.0796 -0.1859 -0.1133 0.263 0.264 0.1698 -0.3103 0.2434
000070 67 a8 74 b1 2e 2f 23 b1 6b 2c 0c b0 5a 24 a4 29
       -0.0344 -0.1704 0.1122 -0.1605 0.06903 -0.1265 0.017 0.04407
000080 52 b4 43 32 3d b4 64 2e f2 b0 a6 34 b7 b3 ed 2d
       -0.27 0.1957 -0.265 0.09985 -0.1545 0.2905 -0.2411 0.0926
000090 cc 30 c5 b2 b9 30 99 31 7a b1 24 30 28 27 72 ad
       0.1499 -0.2115 0.1476 0.1749 -0.1711 0.1294 0.02795 -0.0851
0000a0 07 31 62 23 0f b4 d8 b3 bb b1 35 21 7a 34 fb ad
       0.1571 0.01442 -0.2537 -0.2451 -0.1791 0.01017 0.2798 -0.09344
0000b0 dd 31 13 93 98 b4 90 b4 d2 ad 3e ae de 30 42 ae
       0.1832 -0.0008636 -0.287 -0.2852 -0.09094 -0.09753 0.1521 -0.0978
0000c0 a1 34 c6 2e 07 a8 e7 b0
       0.2893 0.10583 -0.03146 -0.1532

onnx::Add_148 f2 [10]
000000 fe b1 cf 29 76 2e bb 25 90 b2 d7 34 e2 b1 29 34
       -0.1873 0.04538 0.10095 0.02238 -0.2051 0.3025 -0.1838 0.26
000010 06 b4 de ac
       -0.2515 -0.07605

onnx::MatMul_149 f2 [10, 10]
000000 4a b1 cd b4 ed b4 4b 34 c3 ad 0f aa 45 b4 c8 a7
       -0.1653 -0.3 -0.3079 0.2683 -0.09 -0.04733 -0.2668 -0.0304
000010 af b0 5b 32 7c 2c da b4 f9 b1 da 31 31 b4 76 b4
       -0.1464 0.1986 0.07007 -0.3032 -0.1866 0.1829 -0.262 -0.2788
000020 a3 af e2 b3 c9 34 42 2d a4 ac fc 34 e6 ae 24 ae
       -0.1193 -0.2463 0.299 0.08215 -0.0725 0.3115 -0.1078 -0.09595
000030 97 b4 92 b4 f6 b2 38 34 ca 2c 66 2e e7 b0 67 b2
       -0.2869 -0.2856 -0.2175 0.2637 0.0748 0.1 -0.1532 -0.2001
000040 18 31 b7 b2 12 2d b9 34 cb 34 77 b0 f0 b4 85 27
       0.1592 -0.2098 0.0792 0.2952 0.2996 -0.1395 -0.3086 0.02937
000050 90 29 c3 2b 8c b2 06 a6 21 a6 79 30 59 b0 2e 2f
       0.04346 0.06064 -0.2046 -0.02353 -0.02394 0.1398 -0.1359 0.1122
000060 c3 ad 8c 2f 29 34 fd a6 c5 34 30 34 1c b1 69 30
       -0.09 0.1179 0.26 -0.0273 0.298 0.2617 -0.1597 0.1378
000070 9f b0 67 34 e5 b2 ee ac d7 b2 43 ac 82 ac cb ae
       -0.1444 0.2751 -0.2155 -0.077 -0.2137 -0.0666 -0.07043 -0.10614
000080 17 2c 61 b4 4d 31 1a 31 70 34 07 b0 85 23 85 ac
       0.0639 -0.2737 0.1656 0.1594 0.2773 -0.1259 0.01469 -0.0706
000090 45 ab b1 b4 b0 2f af 34 ae b0 bb 29 af aa bb b4
       -0.0568 -0.2932 0.1201 0.2927 -0.1462 0.04477 -0.05222 -0.2957
0000a0 77 af 6e 32 ee 33 26 30 06 34 cb 34 fc b0 4e 34
       -0.11664 0.2009 0.2478 0.1296 0.2515 0.2996 -0.1558 0.269
0000b0 9d b4 a0 b3 f7 34 bd 23 16 31 ed 34 db 33 91 34
       -0.2883 -0.2383 0.3103 0.015114 0.1589 0.3079 0.2455 0.2854
0000c0 15 a7 71 29 17 a5 63 30
       -0.02766 0.0425 -0.01988 0.1371

Attention_0_qkv_weight f2 [10, 30]
000000 d9 98 1e ae 5a 2f e4 af 42 24 79 32 94 30 cc b3
       -0.002367 -0.0956 0.11487 -0.1233 0.01663 0.2023 0.1431 -0.2437
000010 b7 b4 6b 2f 25 b0 f1 2f 4e ac cb 34 bc b4 cc ab
       -0.2947 0.1159 -0.1295 0.1241 -0.06726 0.2996 -0.296 -0.0609
000020 73 34 58 28 04 34 d0 22 d2 98 d0 a5 16 1b af 2e
       0.278 0.03394 0.251 0.013306 -0.002354 -0.0227 0.00346 0.10443
000030 54 b1 d4 b1 ca b0 28 21 2a b2 e2 b0 6e 31 f5 ab
       -0.1665 -0.1821 -0.1497 0.01007 -0.1926 -0.1526 0.1697 -0.06216
000040 34 34 5f 34 30 b1 08 35 12 30 6b af 7f 34 1e 31
       0.2627 0.2732 -0.1621 0.3145 0.1272 -0.1159 0.281 0.1599
000050 01 32 d9 24 53 2c 6d 32 45 b4 f3 ab 21 b0 3d ac
       0.1876 0.01894 0.06757 0.2008 -0.2668 -0.0621 -0.129 -0.0662
000060 ed 32 86 32 00 ac 01 35 2c 34 97 33 5a 29 d1 31
       0.2164 0.2039 -0.0625 0.3127 0.2607 0.2372 0.0418 0.1818
000070 c2 b0 cf b2 d8 2e 46 2b 2a b4 d5 b4 2a ac 8f b2
       -0.1487 -0.2128 0.10693 0.05682 -0.2603 -0.302 -0.06506 -0.205
000080 d9 2a 04 30 ff b1 f4 2f b2 33 3e 33 28 b2 f0 b0
       0.0535 0.1255 -0.1874 0.12427 0.2405 0.2263 -0.1924 -0.1543
000090 98 b2 ce 34 1b ac 8a b4 92 34 3a 33 23 b3 a6 b3
       -0.206 0.3003 -0.06415 -0.2837 0.2856 0.2258 -0.223 -0.239
0000a0 14 29 50 2f 0e 29 84 ae 2f 34 5c 31 c9 b4 17 b4
       0.03967 0.11426 0.0395 -0.1018 0.2615 0.1675 -0.299 -0.2556
0000b0 66 2e 42 b1 72 b3 b4 b2 93 33 a9 b0 b9 b4 78 29
       0.1 -0.1643 -0.2327 -0.2095 0.2367 -0.1456 -0.2952 0.04272
0000c0 1d 2e 31 34 0c b5 91 2f 97 34 ca 30 28 a4 db a5
       0.0955 0.262 -0.3154 0.1182 0.2869 0.1497 -0.01624 -0.02287
0000d0 8d 31 5e b4 54 2f a6 2d 39 23 f2 b2 9f ac 96 20
       0.1735 -0.273 0.1145 0.08826 0.01411 -0.217 -0.0722 0.00896
0000e0 88 34 26 10 eb ad c4 33 5f 2c 08 34 ae 9e aa 2c
       0.2832 0.0005064 -0.09247 0.2427 0.0683 0.252 -0.006523 0.0729
0000f0 cc af 2c b0 86 aa 12 b3 50 b3 c9 32 8e 31 67 34
       -0.1218 -0.1304 -0.05096 -0.221 -0.2285 0.212 0.1736 0.2751
000100 94 2b 02 b5 ef 32 da b4 3e 33 8c b4 79 31 55 aa
       0.0592 -0.313 0.2167 -0.3032 0.2263 -0.2842 0.171 -0.04947
000110 91 b4 dd 30 22 b3 e0 b1 8d 98 62 b4 31 32 36 31
       -0.2854 0.152 -0.2229 -0.1836 -0.002222 -0.274 0.1935 0.1628
000120 02 b2 57 2f ae b1 97 2a 8d ac f3 2b 6d 2d ff 21
       -0.1877 0.1147 -0.1775 0.05148 -0.0711 0.0621 0.0848 0.01171
000130 48 28 bd b4 38 b1 f5 b1 1c a9 77 34 d2 aa 90 b2
       0.03345 -0.2961 -0.1631 -0.1862 -0.03992 0.279 -0.05328 -0.2051
000140 44 b4 ff b1 29 a8 cc b0 e1 b4 30 1c 67 32 26 2f
       -0.2666 -0.1874 -0.0325 -0.1499 -0.305 0.00409 0.2001 0.1117
000150 92 b1 15 33 2a 29 03 31 66 b2 e5 b4 7c af c2 ae
       -0.1741 0.2213 0.04034 0.1566 -0.2 -0.306 -0.11694 -0.1056
000160 83 b4 33 34 3d b2 83 b3 6a 9e 00 30 95 34 e8 b1
       -0.282 0.2625 -0.195 -0.2347 -0.006264 0.125 0.2864 -0.1846
000170 62 32 8b 2b 2f 22 07 2c a9 aa 0d 31 09 ad 11 ad
       0.1995 0.05893 0.01208 0.0629 -0.05203 0.1578 -0.0787 -0.07916
000180 80 20 e4 32 50 32 99 b0 ac a8 de ac e6 b1 46 af
       0.00879 0.2153 0.1973 -0.1437 -0.0365 -0.07605 -0.1843 -0.11365
000190 ea b3 35 b3 8a 30 51 33 04 b5 a8 ad 70 34 c9 ae
       -0.2473 -0.2252 0.1418 0.2286 -0.3135 -0.0884 0.2773 -0.106
0001a0 ff 32 bd 2a 03 34 12 32 b2 b4 59 34 ef 31 d8 b3
       0.2186 0.05264 0.2507 0.1897 -0.2935 0.2717 0.1854 -0.2451
0001b0 b0 2c 66 b4 a2 b0 3c 2c 4e 23 ee b0 fc a6 33 98
       0.07324 -0.275 -0.1448 0.06616 0.01427 -0.154 -0.02728 -0.00205
0001c0 eb b3 a0 2f 84 b0 42 ac eb 2e 45 34 4e b1 bf ad
       -0.2474 0.11914 -0.1411 -0.0665 0.1081 0.2668 -0.1658 -0.0898
0001d0 27 b3 2f b4 91 30 fb 2d 92 b2 f6 2d 88 b3 4f 30
       -0.2235 -0.2615 0.1427 0.09344 -0.2053 0.09314 -0.2354 0.1346
0001e0 2f a7 dc b2 5f b2 84 30 7d b0 03 b3 47 32 72 27
       -0.02806 -0.2144 -0.1991 0.1411 -0.1403 -0.2191 0.1962 0.02908
0001f0 c8 2f e5 b3 e8 29 15 af 19 2c 08 b1 47 ac 8e b4
       0.1216 -0.2467 0.04614 -0.11066 0.064 -0.1572 -0.06683 -0.2847

Attention_0_qkv_bias f2 [30]
000000 c3 34 d2 32 6a b0 18 ad d2 b4 d2 9d 9f b3 ce b3
       0.2976 0.2131 -0.138 -0.0796 -0.3013 -0.005684 -0.2382 -0.2439
000010 76 a4 14 2a 00 00 00 00 00 00 00 00 00 00 00 00
       -0.01743 0.0475 0.0 0.0 0.0 0.0 0.0 0.0
000020 00 00 00 00 00 00 00 00 26 b4 3d aa 07 2f 62 af
       0.0 0.0 0.0 0.0 -0.2593 -0.04874 0.1098 -0.11536
000030 af 2f bd 32 49 b1 63 1a 2f 30 58 26
       0.12006 0.2106 -0.1652 0.003119 0.1307 0.02478
