onnxruntime/test/python/transformers/test_data/models/gpt2_megatron_opt_skiplayernorm.onnx (onnx, 8868 bytes, 17 tensors)

word_embeddings.weight f4 [10, 8]
-0.011113854 0.019183427 0.0031544869 0.008339545 0.011996994 0.0017080094 0.016611455 -0.0015111396
-0.0034915197 -0.02803119 -0.0057530934 -0.013920205 0.02322107 0.0443065 -0.0032656777 0.009427746
0.026436474 0.0065115946 -0.032938827 -0.017957918 0.018069854 0.028057761 -0.003361522 -0.0007975701
0.044594105 0.03509056 0.019791516 6.552282e-05 0.013323271 0.01127219 0.002599052 -0.022983784
-0.008153372 0.010700759 -0.0059476187 -0.04020199 0.028251762 0.0069137923 0.009751718 0.023739947
-0.003103289 -0.010513043 0.014903679 0.006475582 -0.0020476796 0.0018539751 0.022201251 0.016378263
0.036645927 -0.0031448326 0.0074723433 -0.00093694177 0.007589649 -0.020841464 -0.03720337 -0.015412984
-0.011337809 -0.013276496 -0.0028958668 0.0163393 0.017334772 -0.030021805 -0.0021525444 -0.031986415
-0.001678212 -0.012488831 0.0016651027 0.007791622 -0.0147924675 0.0060683666 -0.004295386 0.029307498
-0.0064806985 0.00612123 0.0076166545 -0.039743766 0.0016656207 0.007634164 -0.023168445 0.0149770565
00000000: e216 36bc 9026 9d3c 82bb 4e3b 96a2 083c
00000010: 0a8f 443c 49df df3a bf14 883c 6e11 c6ba
00000020: fbd1 64bb aba1 e5bc 7284 bcbb 9211 64bc
00000030: 1d3a be3c bc7a 353d fb04 56bb d576 1a3c
00000040: 4e91 d83c 375f d53b ddea 06bd 7c1c 93bc
00000050: 3b07 943c 64d9 e53c fb4c 5cbb 0614 51ba
00000060: 4fa8 363d 1ebb 0f3d d121 a23c 4c69 8938
00000070: d949 5a3c feae 383c db54 2a3b 7d48 bcbc
00000080: b995 05bc 3c52 2f3c 3ee4 c2bb d8aa 24bd
00000090: 3d70 e73c 188d e23b abc5 1f3c 477a c23c
000000a0: 8d60 4bbb e63e 2cbc 8f2e 743c 1e31 d43b
000000b0: 5d32 06bb 1501 f33a 66df b53c b52b 863c
000000c0: 0a1a 163d 8919 4ebb 8fda f43b 199d 75ba
000000d0: 97b2 f83b b8bb aabc 9062 18bd be86 7cbc
000000e0: 38c2 39bc a985 59bc 95c8 3dbb ffd9 853c
000000f0: a701 8e3c 4af0 f5bc b411 0dbb 3004 03bd
00000100: 73f7 dbba f49d 4cbc 933f da3a dd50 ff3b
00000110: 1b5c 72bc 26d9 c63b 4fc0 8cbb 4716 f03c
00000120: 0a5c d4bb 9994 c83b 2195 f93b 5cca 22bd
00000130: f550 da3a 0228 fa3b c0cb bdbc 5462 753c

position_embeddings.weight f4 [64, 8]
0.0038895826 -0.010149336 0.006165788 0.003995459 -0.026714096 -0.0027340406 0.002173327 0.023116311
0.017138941 -0.009020032 -0.01419096 -0.0016038836 0.0064927116 0.0051390645 -0.04365113 -0.045212716
-0.024955763 -0.01675776 0.019405004 0.02111855 0.013034993 -0.016769068 0.007488617 0.021891376
0.00801286 -0.0016729948 -0.0049589784 -0.005637803 0.04656775 -0.017457208 -0.021663286 -0.006018949
-0.020442955 -0.022638945 -0.014218711 0.01632118 -0.032684613 0.032272205 0.021422148 -0.012135366
-0.012578228 0.020387564 -0.030962974 0.014580823 -0.0026735268 0.022053309 -0.0015574152 0.02816031
-0.0011981837 -0.022953382 -0.0031400004 0.029948603 0.011488276 -0.013933031 -0.032116447 0.0014571659
0.004842357 0.017298821 -0.0120098945 0.014206559 0.031601574 0.042494312 0.0148614 0.018086351
0.022521833 -0.0037300037 -0.0159703 -0.033687666 -0.013792838 -0.02043844 -0.010155365 0.0020689727
0.0015788085 -0.022423068 0.006640433 0.036205232 -0.01134177 0.014771977 -0.02165157 0.0102292765
-0.0077890507 0.023489112 -0.025001049 -0.013934413 -0.037299354 -0.006917224 -0.0057152426 0.006595368
-0.010009903 0.006493305 0.01891759 -0.05488887 0.004813308 -0.034712065 0.03295841 -0.050341725
0.00097638625 -0.027173053 -0.03235941 -0.01634886 -0.04725253 0.0071968613 -0.046877287 0.014547895
0.009748048 -0.023723258 0.020687802 -0.009501825 0.012332944 0.03304111 -0.0140280975 0.0052732145
0.034425184 0.00941931 0.013618872 -0.020916207 0.00052894664 -0.00014730527 0.027486976 0.006330882
-0.009591624 0.025608936 -0.0023140982 0.022605432 0.01803988 -0.0069009964 0.023348352 0.031870674
-0.023380872 0.013699252 -0.040224403 -0.023195012 0.0035863447 -0.0029292982 0.011082382 0.011553144
0.020386074 0.020036492 0.02001714 0.01361634 0.012044553 -0.013886087 0.00085574534 -0.021036578
-0.0061761416 0.0030542505 -0.053408828 -0.01935319 -0.01506647 0.03398127 0.0054244953 -0.0064407634
0.012199168 -0.024821974 -0.0027467546 -0.0010396197 -0.013418454 0.025576193 -0.020083446 -0.004709901
0.0103798825 -0.017809045 -0.024705932 0.010421104 0.021784548 0.019810988 -0.016963895 -0.004351584
-0.0019957584 0.0069177523 0.008003709 0.0210458 -0.0018422201 0.0006819891 -0.034616947 -0.01631003
0.0035801632 -0.0060805897 0.0058423122 -0.025279313 0.002904812 -0.005091851 0.023061326 0.014858544
0.0036229917 -0.0012418823 0.002696207 0.015980996 -0.007658189 -0.025132027 0.005737403 -0.01644251
-0.018436527 -0.00041473086 0.024005238 0.03176776 -0.0037324147 -0.00067566184 -0.0053062323 -0.020114072
-0.016699487 -0.023812123 0.031173326 0.008924855 -0.008869548 -0.02759199 -0.00016775982 0.0036784622
0.010573196 0.01583152 0.019106673 0.0014110241 0.019785194 0.010098828 -0.0008777638 -0.019580316
-0.013939344 0.0016060254 -0.025923692 -0.0010602553 0.011294141 0.019071853 -0.027699087 0.0028974498
0.018431036 0.024085645 0.037461758 -0.010558955 0.00036459434 -0.027549535 0.029468635 -0.010896188
0.013721456 0.008498308 -0.008666584 0.0015236126 -0.021625798 0.020953905 -0.032370206 -0.00097170955
-0.015500088 -0.008432778 -0.005049714 -0.027955245 0.024236307 -0.011733668 0.034566447 -0.009540029
-0.02189592 0.0013173212 0.012050523 0.0031971831 0.03191538 -0.006708518 0.0032046621 -0.04929858
00000000: 5ee8 7e3b 6749 26bc 610a ca3b 57ec 823b
00000010: 85d7 dabc 972d 33bb 606e 0e3b 6b5e bd3c
00000020: f766 8c3c c2c8 13bc 3381 68bc 6739 d2ba
00000030: d0c0 d43b 9965 a83b 87cb 32bd f830 39bd
00000040: 0770 ccbc 9247 89bc 3ef7 9e3c cf00 ad3c
00000050: b990 553c 495f 89bc 1363 f53b 8b55 b33c
00000060: 5f48 033c 6448 dbba ed7e a2bb 52bd b8bb
00000070: d3bd 3e3d 6b02 8fbc 3477 b1bc 9b3a c5bb
00000080: fc77 a7bc 4f75 b9bc 99f5 68bc ffb3 853c
00000090: 4de0 05bd dc2f 043d 807d af3c 6ad3 46bc
000000a0: e914 4ebc d203 a73c 10a6 fdbc 67e4 6e3c
000000b0: 5636 2fbb 24a9 b43c 2f22 ccba 73b0 e63c
000000c0: 600c 9dba bb08 bcbc 77c8 4dbb c656 f53c
000000d0: 5239 3c3c 5e47 64bc 898c 03bd 60fe be3a
000000e0: a2ac 9e3b 42b6 8d3c 26c5 44bc a1c2 683c
000000f0: a770 013d 840e 2e3d 3b7d 733c d429 943c
00000100: b57f b83c 1473 74bb 26d4 82bc 14fc 09bd
00000110: 5bfb 61bc 846e a7bc b062 26bc 9a97 073b
00000120: 06f0 ce3a 95b0 b7bc fd97 d93b f04b 143d
00000130: d5d2 39bc 2a06 723c a25e b1bc b298 273c
00000140: 4b3b ffbb 3d6c c03c 00cf ccbc 2a4d 64bc
00000150: 35c7 18bd e1a9 e2bb ee46 bbbb f51d d83b
00000160: 9400 24bc cac5 d43b 10f9 9a3c 27d3 60bd
00000170: f4b8 9d3b 3d2e 0ebd 66ff 063d 2033 4ebd
00000180: 2cf4 7f3a 069a debc 4d8b 04bd 0bee 85bc
00000190: de8b 41bd a6d3 eb3b 6602 40bd 4b5a 6e3c
000001a0: 47b6 1f3c 4757 c2bc 7779 a93c 8bad 1bbc
000001b0: 1e10 4a3c 1d56 073d 1bd6 65bc eeca ac3b
000001c0: 6c01 0d3d 7353 1a3c b021 5f3c 7758 abbc
000001d0: 02a9 0a3a f575 1ab9 5e2c e13c 4a73 cf3b
000001e0: 3026 1dbc d5c9 d13c 20a8 17bb 072f b93c
000001f0: 5fc8 933c c121 e2bb 0b45 bf3c d38a 023d
00000200: 3e89 bfbc d472 603c 58c2 24bd 7703 bebc
00000210: e108 6b3b 78f9 3fbb e192 353c 6649 3d3c
00000220: b200 a73c 9223 a43c fcfa a33c 1217 5f3c
00000230: 8456 453c 7882 63bc 1954 603a e754 acbc
00000240: 3b61 cabb d229 483b 37c3 5abd 958a 9ebc
00000250: 5bd9 76bc f22f 0b3d f7bf b13b 0a0d d3bb
00000260: 05df 473c 7457 cbbc e502 34bb d943 88ba
00000270: 13d9 5bbc 2a85 d13c 0a86 a4bc 8355 9abb
00000280: 6210 2a3c 46e4 91bc 1864 cabc 47bd 2a3c
00000290: 8275 b23c a74a a23c def7 8abc bb97 8ebb
000002a0: 45cb 02bb 50ae e23b fd21 033c 3e68 ac3c
000002b0: a676 f1ba 84c7 323a 80ca 0dbd 9d9c 85bc
000002c0: 2ca1 6a3b af3f c7bb de70 bf3b 9016 cfbc
000002d0: a95e 3e3b 8bd9 a6bb 1beb bc3c 4071 733c
000002e0: b76f 6d3b a8c6 a2ba d9b2 303b 94ea 823c
000002f0: 8cf1 fabb aee1 cdbc d300 bc3b 71b2 86bc
00000300: 3308 97bc 3c70 d9b9 a2a6 c43c e91e 023d
00000310: 879b 74bb e61e 31ba e7df adbb 44c6 a4bc
00000320: 5dcd 88bc a411 c3bc 345f ff3c 8e39 123c
00000330: 9551 11bc 9908 e2bc afe8 2fb9 5b12 713b
00000340: 333b 2d3c 1bb1 813c 9985 9c3c 1df2 b83a
00000350: 8f14 a23c 8e75 253c bb19 66ba e666 a0bc
00000360: d961 64bc 4581 d23a ec5d d4bc 44f8 8aba
00000370: 100b 393c 933c 9c3c 32e9 e2bc 24e3 3d3b
00000380: affc 963c 424f c53c 8071 193d 78ff 2cbc
00000390: 0627 bf39 90af e1bc 3568 f13c ed85 32bc
000003a0: f5cf 603c 7d3c 0b3c 4afe 0dbc f5b3 c73a
000003b0: 9628 b1bc 86a7 ab3c 9f96 04bd 53ba 7eba
000003c0: 15f4 7dbc a229 0abc 1278 a5bb 6602 e5bc
000003d0: 388b c63c 923e 40bc 8c95 0d3d c84d 1cbc
000003e0: 135f b3bc f7a9 ac3a 8f6f 453c d587 513b
000003f0: b4b9 023d 21d3 dbbb 4f05 523b 4fed 49bd

transformer.layers.0.input_layernorm.weight f4 [8]
1.0 1.0 1.0 1.0 1.0 1.0 1.0 1.0
00000000: 0000 803f 0000 803f 0000 803f 0000 803f
00000010: 0000 803f 0000 803f 0000 803f 0000 803f

transformer.layers.0.input_layernorm.bias f4 [8]
0.0 0.0 0.0 0.0 0.0 0.0 0.0 0.0
00000000: 0000 0000 0000 0000 0000 0000 0000 0000
00000010: 0000 0000 0000 0000 0000 0000 0000 0000

transformer.layers.0.attention.query_key_value.bias f4 [24]
0.0 0.0 0.0 0.0 0.0 0.0 0.0 0.0
0.0 0.0 0.0 0.0 0.0 0.0 0.0 0.0
0.0 0.0 0.0 0.0 0.0 0.0 0.0 0.0
00000000: 0000 0000 0000 0000 0000 0000 0000 0000
00000010: 0000 0000 0000 0000 0000 0000 0000 0000
00000020: 0000 0000 0000 0000 0000 0000 0000 0000
00000030: 0000 0000 0000 0000 0000 0000 0000 0000
00000040: 0000 0000 0000 0000 0000 0000 0000 0000
00000050: 0000 0000 0000 0000 0000 0000 0000 0000

transformer.layers.0.attention.dense.bias f4 [8]
0.0 0.0 0.0 0.0 0.0 0.0 0.0 0.0
00000000: 0000 0000 0000 0000 0000 0000 0000 0000
00000010: 0000 0000 0000 0000 0000 0000 0000 0000

transformer.layers.0.post_attention_layernorm.weight f4 [8]
1.0 1.0 1.0 1.0 1.0 1.0 1.0 1.0
00000000: 0000 803f 0000 803f 0000 803f 0000 803f
00000010: 0000 803f 0000 803f 0000 803f 0000 803f

transformer.layers.0.post_attention_layernorm.bias f4 [8]
0.0 0.0 0.0 0.0 0.0 0.0 0.0 0.0
00000000: 0000 0000 0000 0000 0000 0000 0000 0000
00000010: 0000 0000 0000 0000 0000 0000 0000 0000

transformer.layers.0.mlp.dense_h_to_4h.bias f4 [32]
0.0 0.0 0.0 0.0 0.0 0.0 0.0 0.0
0.0 0.0 0.0 0.0 0.0 0.0 0.0 0.0
0.0 0.0 0.0 0.0 0.0 0.0 0.0 0.0
0.0 0.0 0.0 0.0 0.0 0.0 0.0 0.0
00000000: 0000 0000 0000 0000 0000 0000 0000 0000
00000010: 0000 0000 0000 0000 0000 0000 0000 0000
00000020: 0000 0000 0000 0000 0000 0000 0000 0000
00000030: 0000 0000 0000 0000 0000 0000 0000 0000
00000040: 0000 0000 0000 0000 0000 0000 0000 0000
00000050: 0000 0000 0000 0000 0000 0000 0000 0000
00000060: 0000 0000 0000 0000 0000 0000 0000 0000
00000070: 0000 0000 0000 0000 0000 0000 0000 0000

transformer.layers.0.mlp.dense_4h_to_h.bias f4 [8]
0.0 0.0 0.0 0.0 0.0 0.0 0.0 0.0
00000000: 0000 0000 0000 0000 0000 0000 0000 0000
00000010: 0000 0000 0000 0000 0000 0000 0000 0000

transformer.final_layernorm.weight f4 [8]
1.0 1.0 1.0 1.0 1.0 1.0 1.0 1.0
00000000: 0000 803f 0000 803f 0000 803f 0000 803f
00000010: 0000 803f 0000 803f 0000 803f 0000 803f

transformer.final_layernorm.bias f4 [8]
0.0 0.0 0.0 0.0 0.0 0.0 0.0 0.0
00000000: 0000 0000 0000 0000 0000 0000 0000 0000
00000010: 0000 0000 0000 0000 0000 0000 0000 0000

209 f4 [8, 24]
-0.013747345 -0.023710243 0.024949629 0.01085697 -0.008956479 0.017318835 0.007816674 -0.013541027
-0.0011514308 -0.046171706 0.017404756 0.034421008 0.012951966 -0.016298736 0.0026073223 -0.008692885
-0.0063226395 0.003601977 0.0041948915 -0.00943527 0.014821532 0.006934509 -0.005779463 -0.013256814
-0.021761842 0.02660467 -0.00017534193 0.013790687 -0.023675792 0.02216014 0.03653652 0.019126534
0.01621405 0.021030888 0.010758989 0.0048788106 -0.021221412 0.014436971 0.018127939 -0.009048156
-0.009959953 -0.014722284 0.0057499376 -0.02023056 0.0138205355 -0.0026047425 -0.011476536 0.0080613475
-0.0122010205 0.0124571575 0.05799141 0.02080828 0.0035172387 0.03815203 0.032599013 -0.00778348
0.005614615 0.004845269 -0.004101582 -0.026439108 -0.005774739 0.005223807 -0.021913487 -0.02248306
-0.048933577 -0.0013511383 -0.0021613315 -0.0011030599 0.009668714 -0.00062421284 -0.02386103 -0.03537543
-0.032603677 -0.025364704 9.914688e-05 0.020536946 0.0020201928 0.005943378 0.0121263955 0.016821152
-0.018726123 0.00036118022 -0.022371003 -0.0017209308 0.006684199 0.021124214 0.008730079 0.013265063
-6.900197e-05 -0.00051249 0.015285656 -0.031793624 0.04278514 -0.0042073405 -0.030091593 -0.0067157205
0.025801387 -0.006766858 0.032815214 0.013723124 -0.016063042 -0.01783723 -0.009066036 -0.018320104
0.0022892088 0.010068698 -0.015855068 0.006416747 -0.0405931 -0.01897435 -0.017926909 0.0158655
0.017977644 0.019595724 -0.01111986 0.015699206 -0.01890566 -0.014525542 0.02602842 0.008813393
-0.008181501 -0.0041243844 0.034383807 -0.024320627 -0.031207051 0.0049042166 0.024804218 -0.0062829545
-0.016835928 -0.025349341 -0.013471537 -0.0025104552 0.0024934064 0.0024912783 -0.0013583374 -0.012788622
0.013864323 0.03570535 -0.021932108 -0.011869778 -0.017368056 0.019653877 -0.014650171 0.020536533
0.010158117 -0.007976998 -0.0069866637 0.022962887 -0.05833296 0.005493894 0.0062602763 -0.016786711
-0.011118714 -0.002848878 0.025519714 0.04344635 -0.0026022275 0.0010472074 0.0010533993 0.021836221
-0.00052578986 -0.039555058 0.015657192 -0.022797218 -0.03054775 -0.021251686 0.035328448 -0.019127848
0.017798392 -0.001224253 0.0028076484 -0.014763404 0.030860852 -0.0012447258 -0.044170756 -0.0077536255
-0.017859552 -0.014757524 -0.0006997375 -0.039305188 -0.0050096326 0.037237495 0.001972963 -0.026518859
0.026829822 -0.027835218 -0.018959977 0.010093065 -0.004413666 0.007798726 0.0055814553 -0.023463907
00000000: 8b3c 61bc fc3b c2bc 2a63 cc3c 6fe1 313c
00000010: 32be 12bc 3be0 8d3c 8211 003c 2fdb 5dbc
00000020: 9beb 96ba 8b1e 3dbd 6b94 8e3c 0bfd 0c3d
00000030: 7c34 543c ed84 85bc 9cdf 2a3b 9a6c 0ebc
00000040: 252e cfbb 250f 6c3b 4d75 893b 6496 1abc
00000050: 03d6 723c e13a e33b a661 bdbb 1c33 59bc
00000060: e445 b2bc 09f2 d93c fedb 37b9 55f2 613c
00000070: bcf3 c1bc 2f89 b53c 51a7 153d 40af 9c3c
00000080: 54d3 843c f848 ac3c 7846 303c 6ede 9f3b
00000090: 87d8 adbc 0c89 6c3c 0b81 943c b83e 14bc
000000a0: 122f 23bc bc35 71bc f969 bc3b 8fba a5bc
000000b0: 876f 623c 54b4 2abb 1508 3cbc be13 043c
000000c0: cae6 47bc 1b19 4c3c 6788 6d3d 2076 aa3c
000000d0: 7981 663b 4e45 1c3d 8b86 053d 900c ffbb
000000e0: cefa b73b 10c5 9e3b 9066 86bb d496 d8bc
000000f0: 063a bdbb 782c ab3b ea83 b3bc 652e b8bc
00000100: 936e 48bd ae18 b1ba 20a5 0dbb 8c94 90ba
00000110: 8769 1e3c 37a2 23ba 3578 c3bc d4e5 10bd
00000120: 6f8b 05bd a4c9 cfbc 13ed cf38 193d a83c
00000130: 3665 043b abc0 c23b caad 463c 83cc 893c
00000140: 8767 99bc ca5c bd39 6543 b7bc db90 e1ba
00000150: 2007 db3b b00c ad3c 9b08 0f3c b555 593c
00000160: 27b5 90b8 9f58 06ba b070 7a3c 083a 02bd
00000170: 793f 2f3d bbdd 89bb a582 f6bc 8c0f dcbb
00000180: 6e5d d33c 85bc ddbb 3f69 063d f4d6 603c
00000190: a496 83bc 621f 92bc b689 14bc 0b14 96bc
000001a0: 8d06 163b 2ef7 243c 7de2 81bc 9343 d23b
000001b0: f344 26bd 1970 9bbc 74db 92bc 5df8 813c
000001c0: da45 933c 3687 a03c 1330 36bc 9f9b 803c
000001d0: 0be0 9abc 8afc 6dbc 8e39 d53c 0d66 103c
000001e0: b40b 06bc d825 87bb 09d6 0c3d 0d3c c7bc
000001f0: eea5 ffbc 8db3 a03b 3732 cb3c 3ee1 cdbb
00000200: 80eb 89bc 6ca9 cfbc b9b7 5cbc 7386 24bb
00000210: 6b68 233b b744 233b 3d0a b2ba 5e87 51bc
00000220: 2f27 633c c63f 123d f7aa b3bc 7579 42bc
00000230: 7447 8ebc 2b01 a13c 4507 70bc 3b3c a83c
00000240: 3b6e 263c f4b1 02bc 62f0 e4bb aa1c bc3c
00000250: 8bee 6ebd 2006 b43b 0123 cd3b 4984 89bc
00000260: 442b 36bc 3eb4 3abb b80e d13c cdf4 313d
00000270: 228a 2abb 7342 893a 3712 8a3a e0e1 b23c
00000280: 29d5 09ba 7c04 22bd 8343 803c 3bc1 babc
00000290: 463f fabc 0418 aebc 90b4 103d 01b2 9cbc
000002a0: efcd 913c 1d77 a0ba 8600 383b 34e2 71bc
000002b0: e6cf fc3c 1126 a3ba 65ec 34bd 2012 febb
000002c0: 324e 92bc 8bc9 71bc 976e 37ba 7afe 20bd
000002d0: d827 a4bb 5886 183d d44c 013b 143e d9bc
000002e0: 37ca db3c af06 e4bc f451 9bbc 625d 253c
000002f0: 84a0 90bb 758c ff3b a4e4 b63b 6137 c0bc

220 f4 [8, 8]
-0.0020104994 -0.019408321 -0.011700618 -0.0013377649 0.029344548 -0.0016408334 -0.0006926606 0.008431827
0.024002489 -0.006820346 -0.007914181 0.0048571634 -1.9321056e-05 0.024578061 -0.014618612 0.005958401
-0.0019311348 -0.025191203 0.008111047 -0.01996103 0.005264578 0.001978639 0.008810093 -0.00020528286
-0.024970692 0.0008285137 -0.0053789676 -0.010809747 0.005297798 0.005034679 0.0036871268 -0.006262881
-0.002751754 0.013094167 -0.04081786 0.0037655465 -0.008321723 0.0043558334 -0.0043409104 0.013745548
0.0021516853 0.0070315595 0.0076869577 0.008889852 -0.016482266 -0.008020635 -0.026008075 0.016228754
-0.009007316 -0.00541523 -0.024881259 -0.025432177 0.021471603 -0.016648332 -0.017815305 0.008872525
0.003048778 0.01774025 0.015721126 0.024335945 -0.002569315 -0.010292162 0.012593061 -0.023044052
00000000: 95c2 03bb 33fe 9ebc f3b3 3fbc f157 afba
00000010: fa63 f03c 3c11 d7ba aa93 35ba a525 0a3c
00000020: dea0 c43c 367d dfbb 7baa 01bc d728 9f3b
00000030: a713 a2b7 ee57 c93c e782 6fbc b13e c33b
00000040: 221e fdba c85d cebc 32e4 043c 5085 a3bc
00000050: 7b82 ac3b 0eac 013b 3558 103c 3341 57b9
00000060: 568f ccbc 9d30 593a 0d42 b0bb 5d1b 31bc
00000070: 2799 ad3b f3f9 a43b b9a3 713b db38 cdbb
00000080: c556 34bb eb88 563c a130 27bd 63c7 763b
00000090: d657 08bc 61bb 8e3b 323e 8ebb 0235 613c
000000a0: 4a03 0d3b ff68 e63b e0e2 fb3b bea6 113c
000000b0: d105 87bc fb68 03bc e30e d5bc 2af2 843c
000000c0: 6c93 13bc 3e72 b1bb c8d3 cbbc 2457 d0bc
000000d0: 37e5 af3c 1562 88bc 67f1 91bc 115e 113c
000000e0: 02ce 473b 0054 913c 97c9 803c 2d5c c73c
000000f0: f461 28bb 75a0 28bc 2053 4e3c e1c6 bcbc

221 f4 [8, 32]
0.020121032 0.011472237 0.0031034376 -0.003908988 0.0049227327 -0.013184215 0.024697533 -0.012428807
-0.025725009 -0.020973649 -0.0058501307 0.00056397123 -0.009938985 -0.014375772 -0.008536952 0.027330332
-0.005183785 -0.011148546 -0.032797623 -0.0025847894 0.011174694 0.00481913 0.0056541753 -0.01105042
0.0175785 0.010797044 0.023313798 0.011257126 0.0059781866 0.024563825 0.008907434 -0.023016667
0.018466292 -0.01579659 -0.004003084 0.035111208 0.0272062 0.008985668 -0.031360857 -0.014251723
0.016311659 0.0018792803 0.0033702925 -0.0074972175 0.023370499 -0.033500314 0.024402877 -0.033401683
-0.012664051 0.026585829 -0.01058025 -0.017209379 0.012467568 -0.005633524 -0.007739937 0.019430177
0.0038469438 -0.026633961 -0.027790302 -0.0053230394 -0.014658575 -0.033651702 -0.031426866 0.04145858
0.009031908 0.031621736 0.030509872 -0.014620603 0.025874233 0.00803551 0.0316201 -0.0050539654
0.014258169 0.045638822 0.017354883 0.010550976 0.013762339 -0.01564621 0.024650235 -0.00021980406
0.009623755 -0.002212395 0.014374956 -0.00092164706 0.007280989 -0.017454138 -0.025530232 0.0053521944
-0.005732305 -0.002537718 -0.018816376 0.000955674 -0.011034779 0.0016033333 0.033742487 0.008971317
-0.02134676 -0.026281452 0.022261359 0.02655966 -0.010264151 0.032529335 -0.019396031 -0.002817966
0.005088117 0.0120077515 0.009070571 0.02697868 -0.009147783 -0.0053312867 0.009426422 -0.013194523
-0.01220455 0.0314028 0.014946977 0.017460726 -0.02007477 -0.025516847 0.022675514 0.015145104
-0.025316034 -0.023791194 0.009650683 0.009143914 -0.00070756004 0.0012175211 -0.014146334 0.015413618
0.014758689 -0.014221426 0.008819 0.021552341 -0.0186871 0.0003494634 0.04189416 -0.017781997
-0.032422252 0.0036405372 -0.029720481 0.003554436 -0.008055738 -0.007787892 -0.010500034 -0.012750513
0.00013584421 0.018187074 0.01039277 -0.00454672 -0.012146639 0.014499386 0.013088663 0.028672056
0.015508428 -0.009609016 0.020098653 0.032957267 0.008243433 0.014134268 0.017079124 -0.02071264
0.0021543636 0.0011912549 -0.011327072 -0.026587173 -0.0027363354 0.03667007 -0.0032843137 -0.023180418
-0.005002328 0.017554512 0.019048665 -0.00062050164 -0.023715321 0.003351518 -0.004299781 -0.02096769
0.03358991 0.020683667 0.030548876 -0.020998567 0.034110207 0.0034044932 -0.014898353 -0.0095730815
-0.00036672025 0.019169562 -0.008144672 0.023497254 0.00014134371 -0.0053361757 0.0025708382 0.012502874
-0.010978264 0.015922215 0.00050109584 0.00429989 -0.033604264 0.009325355 -0.004648509 -0.017175874
0.008192888 -0.0008276324 0.021437606 0.013511053 0.033974826 0.009024575 -0.009672649 0.03596456
-0.018221138 0.022964587 0.021193786 -0.023060823 -0.0032909354 -0.018953519 -0.018510014 -0.0033201922
-0.008660745 -0.007712913 0.034191344 -0.03494521 0.019940518 -0.009085299 -0.007783697 -0.010215757
0.013844832 -0.0021839263 0.010014437 0.009081273 -0.0032250832 0.011434385 -0.016203888 0.0063028
0.016688542 -0.011563137 -0.018483931 0.009934489 -0.009391612 0.0017612864 0.009655464 0.006261501
-0.0083581675 -0.012210703 0.017757602 0.013361638 -0.0071988218 -0.004134242 0.012964757 0.021371517
-0.020581368 0.028327614 0.01811592 -0.02438433 -0.019715156 0.016799984 -0.019229416 -0.020066144
00000000: ddd4 a43c 0df6 3b3c 0b63 4b3b f816 80bb
00000010: e04e a13b 9b02 58bc 7b52 ca3c 32a2 4bbc
00000020: 41bd d2bc eed0 abbc 74b2 bfbb 78d7 133a
00000030: 20d7 22bc 5c88 6bbc 92de 0bbc dce3 df3c
00000040: bedc a9bb 64a8 36bc cd56 06bd 9265 29bb
00000050: 1016 373c cbe9 9d3b a946 b93b d20c 35bc
00000060: c900 903c 16e6 303c 94fc be3c cf6f 383c
00000070: aae4 c33b 133a c93c 7cf0 113c 738d bcbc
00000080: 9f46 973c da67 81bc 4d2c 83bb c5d0 0f3d
00000090: 89df de3c a038 133c 3e74 00bd 0f80 69bc
000000a0: 07a0 853c 2f52 f63a 20e0 5c3b 38ab f5bb
000000b0: 7d73 bf3c a037 09bd 8be8 c73c 34d0 08bd
000000c0: e17c 4fbc 86ca d93c c958 2dbc affa 8cbc
000000d0: c544 4c3c 6d99 b8bb 4c9f fdbb 092c 9f3c
000000e0: 021d 7c3b 772f dabc 7da8 e3bc e46c aebb
000000f0: 852a 70bc 5ed6 09bd 75b9 00bd 79d0 293d
00000100: 91fa 133c cb85 013d d7ef f93c 418b 6fbc
00000110: 33f6 d33c 5fa7 033c 1484 013d bc9b a5bb
00000120: 189b 693c c6ef 3a3d d42b 8e3c 00de 2c3c
00000130: 6f7b 613c 7b2c 80bc 4aef c93c 347b 66b9
00000140: f4ac 1d3c d4fd 10bb ef84 6b3c b09a 71ba
00000150: 5d95 ee3b fbfb 8ebc c724 d1bc 7661 af3b
00000160: 0fd6 bbbb d84f 26bb cd24 9abc 3286 7a3a
00000170: 38cb 34bc f026 d23a 9035 0a3d 6efc 123c
00000180: 67df aebc 334c d7bc 745d b63c a593 d93c
00000190: f82a 28bc 7b3d 053d 6de4 9ebc a0ad 38bb
000001a0: 38ba a63b 29bc 443c bb9c 143c 6502 dd3c
000001b0: 95e0 15bc 13b2 aebb 4871 1a3c d72d 58bc
000001c0: 98f5 47bc 39a0 003d 2ae4 743c cc09 8f3c
000001d0: d873 a4bc b508 d1bc 00c2 b93c 2c23 783c
000001e0: 9263 cfbc c0e5 c2bc e61d 1e3c 5bd0 153c
000001f0: 8d7b 39ba 3b95 9f3a 06c6 67bc 6689 7c3c
00000200: 6ece 713c fc00 69bc 917d 103c 898e b03c
00000210: b015 99bc 2f38 b739 3699 2b3d 8dab 91bc
00000220: 32cd 04bd 1496 6e3b 5e78 f3bc 8af1 683b
00000230: 37fc 03bc 9331 ffbb 5608 2cbc 87e7 50bc
00000240: 6771 0e39 0ffd 943c 7046 2a3c a7fc 94bb
00000250: b202 47bc d58e 6d3c d571 563c a9e1 ea3c
00000260: 1017 7e3c 226f 1dbc eea5 a43c 33fe 063d
00000270: 770f 073c 6b93 673c 85e9 8b3c 8ead a9bc
00000280: 3930 0d3b e223 9c3a 2f95 39bc 58cd d9bc
00000290: 1754 33bb 5b33 163d a43d 57bb dce4 bdbc
000002a0: 92ea a3bb 7bce 8f3c f20b 9c3c 29a9 22ba
000002b0: a246 c2bc 24a5 5b3b 2de5 8cbb 6fc4 abbc
000002c0: 9395 093d cb70 a93c a341 fa3c 3005 acbc
000002d0: 25b7 0b3d eb1d 5f3b 3918 74bc 6ad8 1cbc
000002e0: 5c44 c0b9 7c09 9d3c 3b71 05bc 507d c03c
000002f0: aa35 1439 16db aebb 827b 283b dbd8 4c3c
00000300: 2dde 33bc 4e6f 823c f95b 033a 17e6 8c3b
00000310: a0a4 09bd 60c9 183c 8552 98bb 6bb4 8cbc
00000320: 773b 063c 78f5 58ba eb9d af3c 775d 5d3c
00000330: 3029 0b3d d0db 133c 087a 1ebc 934f 133d
00000340: 7f44 95bc 3b20 bc3c 979e ad3c 0dea bcbc
00000350: bcac 57bb 6944 9bbc 50a2 97bc 9597 59bb
00000360: cce5 0dbc 9bbc fcbb 390c 0c3d b522 0fbd
00000370: 4c5a a33c 82da 14bc 620e ffbb fe5f 27bc
00000380: 6fd5 623c 3420 0fbb 9813 243c 9fc9 143c
00000390: eb5b 53bb 4957 3b3c 04be 84bc b887 ce3b
000003a0: 69b6 883c 5073 3dbc 9d6b 97bc 44c4 223c
000003b0: 47df 19bc f7da e63a f431 1e3c 472d cd3b
000003c0: b2f0 08bc 670f 48bc 6478 913c c6ea 5a3c
000003d0: 18e4 ebbb 8978 87bb 226a 543c 5213 af3c
000003e0: 429a a8bc 500f e83c d667 943c a5c1 c7bc
000003f0: ae81 a1bc 1fa0 893c 0287 9dbc c161 a4bc

222 f4 [32, 8]
0.0013630067 0.008332249 -0.047954828 0.007935848 -0.006131842 -0.00037166476 0.017226646 -0.0025154664
0.011561015 -0.006160633 -0.0135045545 -0.0048503145 -0.0004019786 0.00092430343 0.004090007 -0.001065386
-0.01666132 0.016157812 0.004513233 -0.0010374612 0.00909202 -0.024833456 -0.0089853825 0.015799038
0.00046415385 -0.014700332 -0.005017747 0.017087612 -0.00074397266 -0.014346302 -0.0020464626 0.00434288
-0.016873667 0.012164075 0.005635238 -0.037419997 -0.015185415 0.0021760028 -0.0112591805 0.016280264
-0.0019522955 -0.009303789 0.0019946292 0.01560207 -0.0003029215 -0.010657245 -0.00042472628 -0.005237156
-0.0073439423 0.0071409377 -0.025964538 0.015298975 -0.0044174315 -0.020009845 0.0051782974 0.031498626
-0.004480287 0.015587635 -0.0051995628 -0.0026139368 0.004617787 -0.009063488 -0.025514772 0.009049991
-0.0032481272 0.005202991 0.002500462 0.0009210062 0.0036867263 0.028897136 0.007651282 -0.009885495
-0.019071518 0.03737296 0.010641434 0.011761364 -0.007119806 0.007552767 0.010040632 0.0069865147
-0.017172342 -0.014901832 -0.015881794 -0.008727027 -0.0062635764 -0.0010198036 0.019577846 -0.036671497
-0.009442986 -0.023667663 -0.012333607 -0.016730387 0.008372319 -0.01303888 0.00021212173 -0.004239394
-0.0036155998 0.019932354 0.005474172 -0.024851384 0.023977246 0.026506849 -0.0016453188 0.020112349
-0.011596504 0.004297864 0.0054709064 -0.01890456 0.012503941 -0.003535215 0.005808896 0.02874006
-0.014045332 -0.010575484 0.016369037 0.010066645 0.0037005602 0.017814577 -0.007243228 -0.014787634
-0.0028964356 0.016557965 0.012117554 -0.026110739 0.0013744567 0.00028313944 0.036779124 -0.0023489904
-0.01691757 -0.0026846235 -0.01035475 -0.014088379 -0.0029247876 -0.0074924543 -0.020514349 0.01612787
0.016952736 -0.0076410235 -0.012434025 0.005935704 -0.006132519 -0.0061886963 -0.0046226634 0.011301102
0.019470641 -0.010789238 -0.028583148 0.0011175543 0.00025761864 0.04184119 0.008799565 0.013141355
0.037508626 0.0011223666 -0.0041393335 0.011573734 -0.0028068118 -0.009474806 -0.015774632 -0.005866385
0.015066837 0.0030405922 -0.009757302 -0.011041857 -0.02709647 -0.0058722985 0.030836174 -0.0045421002
-0.0030321234 -0.012064917 0.0002771773 0.0066794255 -0.017419167 -0.0058234646 0.022537159 -0.019108517
0.011330258 -0.00017474679 -0.016191425 0.026342563 0.004469787 0.003374258 -0.004074568 0.003220105
-0.009107794 0.0025063965 -0.0054428536 0.0029919196 -0.0018997559 -0.016151763 -0.00241642 0.012835205
-0.002035457 -0.0131597025 0.015416558 -0.017617108 -0.010142503 -0.004140131 -0.0025247904 0.0005748103
0.020459443 -0.01670188 0.0188159 -0.024744922 0.005670683 -0.0028597938 -0.02652534 9.3663875e-05
0.012263469 0.002456022 -0.027583957 0.017571613 0.008413748 -0.012614328 -0.0038713566 -6.4747765e-05
-0.0017379719 -0.001858417 -0.0011426383 -0.010587122 -0.013412319 0.008784745 -0.008633795 0.008380345
-0.0077841855 -0.009611517 0.0064713396 0.0028268693 0.007011033 0.0117716 0.0044576405 -0.010139399
-0.03094319 0.022540199 -0.014331405 0.0038743224 0.0055814795 -0.006239252 -0.021483935 -0.014676134
-0.00015232518 -0.018136181 -0.005694906 -0.012161059 0.0094482 0.021426588 0.007988965 -0.009384895
0.016835557 0.01640619 -0.016204726 -0.004229457 -0.0094562275 0.0029688927 0.012801574 -0.00413118
00000000: eaa6 b23a fc83 083c 486c 44bd 5c05 023c
00000010: 9eed c8bb 00dc c2b9 e51e 8d3c 86da 24bb
00000020: 696a 3d3c 23df c9bb 3542 5dbc 63ef 9ebb
00000030: a8c0 d2b9 f44c 723a 7705 863b 6ca4 8bba
00000040: 527d 88bc 635d 843c bee3 933b 6cfb 87ba
00000050: b2f6 143c 886f cbbc 6d37 13bc fc6c 813c
00000060: ad59 f339 a9d9 70bc ea6b a4bb 52fb 8b3c
00000070: 2907 43ba c00c 6bbc f21d 06bb b84e 8e3b
00000080: a53a 8abc d44b 473c cda7 b83b b645 19bd
00000090: 3fcc 78bc 459b 0e3b 6d78 38bc 305e 853c
000000a0: 2be4 ffba eb6e 18bc 53b8 023b d39f 7f3c
000000b0: 6fd1 9eb9 ba9b 2ebc ccad deb9 739c abbb
000000c0: 74a5 f0bb 87fe e93b 95b3 d4bc 8da8 7a3c
000000d0: 1ac0 90bb b0eb a3bc b5ae a93b b404 013d
000000e0: 5fcf 92bb 4863 7f3c 1861 aabb 954e 2bbb
000000f0: ce50 973b 067f 14bc 5b04 d1bc 6a46 143c
00000100: 88de 54bb da7d aa3b cbde 233b ae6f 713a
00000110: 019d 713b b0b9 ec3c 9bb7 fa3b c5f6 21bc
00000120: df3b 9cbc 6414 193d 6959 2e3c bcb2 403c
00000130: 434d e9bb 347d f73b 7781 243c 22ef e43b
00000140: 03ad 8cbc d026 74bc 891a 82bc cefb 0ebc
00000150: b03e cdbb eeaa 85ba b861 a03c da34 16bd
00000160: c1b6 1abc b0e2 c1bc e612 4abc 2a0e 89bc
00000170: 0d2c 093c 07a1 55bc fe6c 5e39 9dea 8abb
00000180: b3f3 6cbb 2d49 a33c af60 b33b 2195 cbbc
00000190: ee6b c43c e424 d93c bda7 d7ba a7c2 a43c
000001a0: 43ff 3dbc 19d5 8c3b 4a45 b33b bcdd 9abc
000001b0: 54dd 4c3c 11af 67bb 8d58 be3b 4670 eb3c
000001c0: 641e 66bc cb44 2dbc 5c18 863c 92ee 243c
000001d0: 1985 723b e0ef 913c 9a58 edbb d547 72bc
000001e0: 20d2 3dbb 92a4 873c b588 463c 30e6 d5bc
000001f0: 1d27 b43a 5572 9439 b5a5 163d 85f1 19bb
00000200: b796 8abc 82f0 2fbb f8a6 29bc f2d2 66bc
00000210: cbad 3fbb 4383 f5bb b50d a8bc 981e 843c
00000220: 77e0 8a3c 8d61 fabb 15b8 4bbc 4b80 c23b
00000230: 4cf3 c8bb 8cca cabb b679 97bb 4228 393c
00000240: e580 9f3c 58c5 30bc 3527 eabc e67a 923a
00000250: fd10 8739 ab61 2b3d 0d2c 103c d64e 573c
00000260: a5a2 193d 601c 933a 3fa3 87bb c29f 3d3c
00000270: 7df2 37bb 373c 1bbc cd39 81bc ce3a c0bb
00000280: e5da 763c ac44 473b 17dd 1fbc e8e8 34bc
00000290: 6bf9 ddbc 696c c0bb 259c fc3c e6d5 94bb
000002a0: 97b6 46bb eeab 45bc 1c52 9139 15df da3b
000002b0: a4b2 8ebc c3d2 bebb d99f b83c 7789 9cbc
000002c0: 8ca2 393c 3c3c 37b9 e1a3 84bc 5ccc d73c
000002d0: 4a77 923b a822 5d3b f483 85bb 6608 533b
000002e0: db38 15bc 5b42 243b f759 b2bb 1514 443b
000002f0: 3b01 f9ba b450 84bc cd5c 1ebb c04a 523c
00000300: 4d65 05bb cb9b 57bc bb95 7c3c c151 90bc
00000310: be2c 26bc f0a9 87bb f476 25bb deae 163a
00000320: 909a a73c 62d2 88bc cd23 9a3c ddb5 cabc
00000330: 23d1 b93b 616b 3bbb ab4b d9bc 696d c438
00000340: b8ec 483c 36f5 203b c0f7 e1bc 58f2 8f3c
00000350: d1d9 093c 54ac 4ebc 96b6 7dbb 31c9 87b8
00000360: a9cc e3ba 2096 f3ba 94c4 95ba 9c75 2dbc
00000370: 58bf 5bbc e4ed 0f3c c374 0dbc b74d 093c
00000380: 7b12 ffbb a079 1dbc 880d d43b ff42 393b
00000390: cfbc e53b abdd 403c 6611 923b b91f 26bc
000003a0: 937c fdbc 39a6 b83c 45ce 6abc 58e8 7d3b
000003b0: d8e4 b63b a472 ccbb 14ff afbc 2b74 70bc
000003c0: 7bb9 1fb9 5492 94bc 569c babb 2e3f 47bc
000003d0: a0cc 1a3c d086 af3c 26e4 023c 1ac3 19bc
000003e0: b9ea 893c 4666 863c c6bf 84bc 4297 8abb
000003f0: 4bee 1abc c191 423b b1bd 513c d95e 87bb

223 f4 [8, 10]
-0.011113854 -0.0034915197 0.026436474 0.044594105 -0.008153372 -0.003103289 0.036645927 -0.011337809
-0.001678212 -0.0064806985 0.019183427 -0.02803119 0.0065115946 0.03509056 0.010700759 -0.010513043
-0.0031448326 -0.013276496 -0.012488831 0.00612123 0.0031544869 -0.0057530934 -0.032938827 0.019791516
-0.0059476187 0.014903679 0.0074723433 -0.0028958668 0.0016651027 0.0076166545 0.008339545 -0.013920205
-0.017957918 6.552282e-05 -0.04020199 0.006475582 -0.00093694177 0.0163393 0.007791622 -0.039743766
0.011996994 0.02322107 0.018069854 0.013323271 0.028251762 -0.0020476796 0.007589649 0.017334772
-0.0147924675 0.0016656207 0.0017080094 0.0443065 0.028057761 0.01127219 0.0069137923 0.0018539751
-0.020841464 -0.030021805 0.0060683666 0.007634164 0.016611455 -0.0032656777 -0.003361522 0.002599052
0.009751718 0.022201251 -0.03720337 -0.0021525444 -0.004295386 -0.023168445 -0.0015111396 0.009427746
-0.0007975701 -0.022983784 0.023739947 0.016378263 -0.015412984 -0.031986415 0.029307498 0.0149770565
00000000: e216 36bc fbd1 64bb 4e91 d83c 4fa8 363d
00000010: b995 05bc 8d60 4bbb 0a1a 163d 38c2 39bc
00000020: 73f7 dbba 0a5c d4bb 9026 9d3c aba1 e5bc
00000030: 375f d53b 1ebb 0f3d 3c52 2f3c e63e 2cbc
00000040: 8919 4ebb a985 59bc f49d 4cbc 9994 c83b
00000050: 82bb 4e3b 7284 bcbb ddea 06bd d121 a23c
00000060: 3ee4 c2bb 8f2e 743c 8fda f43b 95c8 3dbb
00000070: 933f da3a 2195 f93b 96a2 083c 9211 64bc
00000080: 7c1c 93bc 4c69 8938 d8aa 24bd 1e31 d43b
00000090: 199d 75ba ffd9 853c dd50 ff3b 5cca 22bd
000000a0: 0a8f 443c 1d3a be3c 3b07 943c d949 5a3c
000000b0: 3d70 e73c 5d32 06bb 97b2 f83b a701 8e3c
000000c0: 1b5c 72bc f550 da3a 49df df3a bc7a 353d
000000d0: 64d9 e53c feae 383c 188d e23b 1501 f33a
000000e0: b8bb aabc 4af0 f5bc 26d9 c63b 0228 fa3b
000000f0: bf14 883c fb04 56bb fb4c 5cbb db54 2a3b
00000100: abc5 1f3c 66df b53c 9062 18bd b411 0dbb
00000110: 4fc0 8cbb c0cb bdbc 6e11 c6ba d576 1a3c
00000120: 0614 51ba 7d48 bcbc 477a c23c b52b 863c
00000130: be86 7cbc 3004 03bd 4716 f03c 5462 753c
