onnxruntime/test/python/transformers/test_data/models/gpt2_past.onnx (onnx, 182687 bytes, 160 tensors)

h.0.attn.bias_resize f4 [1, 1, 8, 8]
1.0 0.0 0.0 0.0 0.0 0.0 0.0 0.0
1.0 1.0 0.0 0.0 0.0 0.0 0.0 0.0
1.0 1.0 1.0 0.0 0.0 0.0 0.0 0.0
1.0 1.0 1.0 1.0 0.0 0.0 0.0 0.0
1.0 1.0 1.0 1.0 1.0 0.0 0.0 0.0
1.0 1.0 1.0 1.0 1.0 1.0 0.0 0.0
1.0 1.0 1.0 1.0 1.0 1.0 1.0 0.0
1.0 1.0 1.0 1.0 1.0 1.0 1.0 1.0
00000000: 0000 803f 0000 0000 0000 0000 0000 0000
00000010: 0000 0000 0000 0000 0000 0000 0000 0000
00000020: 0000 803f 0000 803f 0000 0000 0000 0000
00000030: 0000 0000 0000 0000 0000 0000 0000 0000
00000040: 0000 803f 0000 803f 0000 803f 0000 0000
00000050: 0000 0000 0000 0000 0000 0000 0000 0000
00000060: 0000 803f 0000 803f 0000 803f 0000 803f
00000070: 0000 0000 0000 0000 0000 0000 0000 0000
00000080: 0000 803f 0000 803f 0000 803f 0000 803f
00000090: 0000 803f 0000 0000 0000 0000 0000 0000
000000a0: 0000 803f 0000 803f 0000 803f 0000 803f
000000b0: 0000 803f 0000 803f 0000 0000 0000 0000
000000c0: 0000 803f 0000 803f 0000 803f 0000 803f
000000d0: 0000 803f 0000 803f 0000 803f 0000 0000
000000e0: 0000 803f 0000 803f 0000 803f 0000 803f
000000f0: 0000 803f 0000 803f 0000 803f 0000 803f

h.0.attn.c_attn.bias_resize f4 [12]
0.48033914 -0.5254326 -0.42926455 -0.2059525 -0.1277338 -0.09542736 -0.35286078 -0.07646318
-0.045903143 -0.037528504 -0.0137644885 -0.18478283
00000000: 03ef f53e c082 06bf 90c8 dbbe 36e5 52be
00000010: a6cc 02be 6b6f c3bd 2baa b4be ba98 9cbd
00000020: ef04 3cbd 7db7 19bd 7384 61bc b637 3dbe

h.0.attn.c_attn.weight_resize f4 [4, 12]
-0.4738484 -0.26136586 -0.09780374 -0.34988934 0.22432406 -0.042920556 0.41869533 0.17441125
-0.18825532 0.18357256 -0.58064836 -0.022514876 0.08742206 0.1473427 0.23870145 0.2884027
0.64908344 0.16965826 -0.06346885 0.40739733 -0.030709455 0.4110258 0.078968085 0.16783114
0.0038893644 0.06946629 0.3668052 -0.072610594 -0.14960581 0.020944256 -0.09378613 -0.13367423
0.06061395 0.22059144 -0.0351991 -0.18405692 0.2214996 -0.18843609 -0.014074507 0.42524403
0.24987127 -0.3139642 0.14036843 0.28541926 0.09709841 0.09935075 -0.012154421 0.25758165
00000000: 429c f2be bfd1 85be 544d c8bd b224 b3be
00000010: 35b5 653e 77cd 2fbd 3c5f d63e dd98 323e
00000020: 01c6 40be 72fa 3b3e 5fa5 14bf 1e71 b8bc
00000030: 560a b33d 01e1 163e 276e 743e 85a9 933e
00000040: 552a 263f e5ba 2d3e f5fb 81bd 6296 d03e
00000050: 6592 fbbc f971 d23e 05ba a13d eddb 2b3e
00000060: b5e4 7e3b 5844 8e3d e4cd bb3e ddb4 94bd
00000070: 4432 19be 4a93 ab3c f112 c0bd e6e1 08be
00000080: 5546 783d b9e2 613e ee2c 10bd 6b79 3cbe
00000090: cbd0 623e 64f5 40be c398 66bc 96b9 d93e
000000a0: 41de 7f3e eabf a0be bebc 0f3e 7922 923e
000000b0: 88db c63d 6878 cb3d 5623 47bc bee1 833e

h.0.attn.c_proj.bias_resize f4 [4]
0.15029159 -0.15426147 -0.14663069 -0.09912773
00000000: 0ae6 193e b8f6 1dbe 5b26 16be 7b03 cbbd

h.0.attn.c_proj.weight_resize f4 [4, 4]
0.31271818 -0.18741347 0.098024875 -0.03033928 -0.2441914 -0.19776976 -0.10981242 0.03465089
-0.4300631 0.15438755 0.05378212 -0.0095676575 0.041477125 -0.022861784 0.19028571 -0.0014934207
00000000: 991c a03e 51e9 3fbe 44c1 c83d 158a f8bc
00000010: 4f0d 7abe 2884 4abe 56e5 e0bd 17ee 0d3d
00000020: 3b31 dcbe c517 1e3e a44a 5c3d aac1 1cbc
00000030: ebe3 293d a348 bbbc 42da 423e e2be c3ba

h.0.ln_1.bias_resize f4 [4]
-0.003677325 0.027196737 -0.06404091 -0.0049628904
00000000: 47ff 70bb b1cb de3c e127 83bd be9f a2bb

h.0.ln_1.weight_resize f4 [4]
0.22322033 0.18195866 0.15343246 0.19168256
00000000: df93 643e 5f53 3a3e 661d 1d3e 6f48 443e

h.0.ln_2.bias_resize f4 [4]
0.04247827 0.032626733 0.0044880672 0.015759379
00000000: b2fd 2d3d 9ca3 053d a310 933b d019 813c

h.0.ln_2.weight_resize f4 [4]
0.13096605 0.20933688 0.20659243 1.2542268
00000000: f71b 063e 685c 563e f78c 533e 818a a03f

h.0.mlp.c_fc.bias_resize f4 [16]
0.03961948 -0.08812532 -0.14024909 -0.033150904 -0.01605977 -0.0147047825 -0.19732018 0.12343803
-0.003439988 0.0073190243 -0.038716752 0.1870614 -0.068038024 -0.09193191 -0.07458716 -0.014410524
00000000: 0948 223d 0c7b b4bd 759d 0fbe 3ec9 07bd
00000010: c78f 83bc 54ec 70bc 4d0e 4abe 14cd fc3d
00000020: 6c71 61bb 6dd4 ef3b 7595 1ebd 068d 3f3e
00000030: 8557 8bbd cc46 bcbd 27c1 98bd 1e1a 6cbc

h.0.mlp.c_fc.weight_resize f4 [4, 16]
0.09420195 0.09824043 -0.032102212 0.067147315 -0.11544462 0.002601798 0.004777287 -0.13497317
-0.020366482 -0.04724137 0.15269932 0.09759153 -0.04553854 0.008376304 -0.0443807 0.07265908
-0.12645245 -0.06710183 0.030514386 -0.011940902 -0.046205122 -0.003122597 0.08560255 -0.08701846
-0.051691744 0.118724905 0.05870253 0.076632574 -0.048623163 -0.068385966 0.0478351 0.01738472
0.049611192 -0.037294436 -0.048338354 -0.0049954266 0.123120084 0.13786598 0.1650018 -0.010165284
-0.03187366 -0.100357994 0.05867383 -0.000572414 -0.07935756 -0.101102084 -0.083070315 -0.004505995
-0.011630606 0.15751988 0.25487122 -0.14827754 0.26784864 -0.17895824 -0.25707257 -0.09913184
-0.20690364 -0.10574491 -0.021644369 -0.03679305 0.23831676 0.27348986 -0.3158789 -0.24630892
00000000: f4ec c03d 4732 c93d 9c7d 03bd 8884 893d
00000010: 3b6e ecbd ed82 2a3b ca8a 9c3b 6836 0abe
00000020: 9cd7 a6bc 2b80 41bd 365d 1c3e 11de c73d
00000030: 9f86 3abd c43c 093c 89c8 35bd 49ce 943d
00000040: c07c 01be af6c 89bd 4ef9 f93c c6a3 43bc
00000050: 9541 3dbd 7ca4 4cbb 6450 af3d bc36 b2bd
00000060: b9ba 53bd 0b26 f33d 1072 703d 8af1 9c3d
00000070: 1529 47bd f10d 8cbd bdee 433d 666a 8e3c
00000080: 1b35 4b3d 0dc2 18bd 70fe 45bd adb0 a3bb
00000090: 6226 fc3d bd2c 0d3e 3bf6 283e 4b8c 26bc
000000a0: f48d 02bd 7e88 cdbd f853 703d 0e0e 16ba
000000b0: 3786 a2bd 9c0e cfbd c520 aabd 07a7 93bb
000000c0: 4c8e 3ebc e44c 213e 7b7e 823e 11d6 17be
000000d0: 7523 893e d440 37be 049f 83be a205 cbbd
000000e0: 8cde 53be ca90 d8bd 884f b1bc 4fb4 16bd
000000f0: 4f09 743e dd06 8c3e e1ba a1be 6838 7cbe

h.0.mlp.c_proj.bias_resize f4 [4]
0.04502327 0.032263055 -0.08854542 -0.008162474
00000000: 526a 383d 4426 043d 4d57 b5bd e6bb 05bc

h.0.mlp.c_proj.weight_resize f4 [16, 4]
-0.10660641 0.15278405 0.03310481 0.023700204 0.036397286 -0.059368346 0.084828384 -0.011294159
-0.07666593 0.008386842 -0.09474386 0.06704489 0.09239361 0.03167028 0.046798836 0.060812283
-0.03752035 0.06843158 0.0672589 -0.10048246 -0.10563356 0.025372984 0.03849645 -0.03381754
0.14420302 -0.025412591 0.03650458 -0.116917014 -0.07613208 0.064506054 0.038651288 -0.0841857
-0.12788413 -0.0063228626 0.04025699 -0.015634706 0.02017359 -0.13694195 -0.1139548 0.08059261
0.025209203 -0.02951205 0.070202455 -0.14624093 -0.026476737 0.11090184 0.121534 0.089687854
-0.018649785 -0.0050788657 -0.013320383 0.071739726 0.07502896 0.08377892 0.0438473 0.11949529
-0.020843485 -0.11320498 0.006057048 -0.05229599 -0.047212992 0.09728924 -0.026288299 -0.116405
00000000: 7654 dabd 6c73 1c3e e998 073d ee26 c23c
00000010: 5215 153d 392c 73bd 81ba ad3d 230b 39bc
00000020: 0703 9dbd f768 093c 1209 c2bd d54e 893d
00000030: dc38 bd3d b2b8 013d 23b0 3f3d 4d16 793d
00000040: f0ae 19bd db25 8c3d 09bf 893d bfc9 cdbd
00000050: 6856 d8bd 01db cf3c 74ae 1d3d 4384 0abd
00000060: f5a9 133e 112e d0bc d485 153d 3072 efbd
00000070: 23eb 9bbd c01b 843d d050 1e3d 8d69 acbd
00000080: 0ff4 02be 0430 cfbb 83e4 243d 5b14 80bc
00000090: 1643 a53c 833a 0cbe 2261 e9bd bd0d a53d
000000a0: 8883 ce3c 41c3 f1bc 4ec6 8f3d 2fc0 15be
000000b0: bee5 d8bc 8120 e33d d1e6 f83d 44ae b73d
000000c0: 6fc7 98bc 9d6c a6bb bc3d 5abc 47ec 923d
000000d0: c9a8 993d 4894 ab3d 3a99 333d f2b9 f43d
000000e0: f5bf aabc 03d8 e7bd 347a c63b 5234 56bd
000000f0: 6962 41bd 953f c73d 8f5a d7bc bf65 eebd

h.1.attn.bias_resize f4 [1, 1, 8, 8]
1.0 0.0 0.0 0.0 0.0 0.0 0.0 0.0
1.0 1.0 0.0 0.0 0.0 0.0 0.0 0.0
1.0 1.0 1.0 0.0 0.0 0.0 0.0 0.0
1.0 1.0 1.0 1.0 0.0 0.0 0.0 0.0
1.0 1.0 1.0 1.0 1.0 0.0 0.0 0.0
1.0 1.0 1.0 1.0 1.0 1.0 0.0 0.0
1.0 1.0 1.0 1.0 1.0 1.0 1.0 0.0
1.0 1.0 1.0 1.0 1.0 1.0 1.0 1.0
00000000: 0000 803f 0000 0000 0000 0000 0000 0000
00000010: 0000 0000 0000 0000 0000 0000 0000 0000
00000020: 0000 803f 0000 803f 0000 0000 0000 0000
00000030: 0000 0000 0000 0000 0000 0000 0000 0000
00000040: 0000 803f 0000 803f 0000 803f 0000 0000
00000050: 0000 0000 0000 0000 0000 0000 0000 0000
00000060: 0000 803f 0000 803f 0000 803f 0000 803f
00000070: 0000 0000 0000 0000 0000 0000 0000 0000
00000080: 0000 803f 0000 803f 0000 803f 0000 803f
00000090: 0000 803f 0000 0000 0000 0000 0000 0000
000000a0: 0000 803f 0000 803f 0000 803f 0000 803f
000000b0: 0000 803f 0000 803f 0000 0000 0000 0000
000000c0: 0000 803f 0000 803f 0000 803f 0000 803f
000000d0: 0000 803f 0000 803f 0000 803f 0000 0000
000000e0: 0000 803f 0000 803f 0000 803f 0000 803f
000000f0: 0000 803f 0000 803f 0000 803f 0000 803f

h.1.attn.c_attn.bias_resize f4 [12]
0.009169706 -0.124126405 -0.22797348 -0.15159778 -0.064282276 -0.090324536 0.20536052 0.07991953
-0.20144078 -0.29229414 0.03318206 -0.3854477
00000000: 893c 163c fc35 febd e171 69be 733c 1bbe
00000010: 6da6 83bd 12fc b8bd 074a 523e daac a33d
00000020: 7e46 4ebe 94a7 95be e9e9 073d 6759 c5be

h.1.attn.c_attn.weight_resize f4 [4, 12]
-0.290555 0.30568516 0.03020631 0.2115973 0.3196405 -0.08614772 0.4112454 0.2706332
0.3864898 -0.31772387 0.009799117 0.09583756 -0.32722947 0.24198511 0.21404651 0.15056482
0.23430067 -0.11558992 0.012952397 -0.24061769 -0.31999293 -0.21365051 0.22609647 0.26186693
-0.267928 0.11882048 -0.26696983 -0.2955873 0.1791158 0.3581444 0.07546876 0.15833566
-0.5582525 -0.053360723 0.62756145 0.25350493 0.16915713 -0.10022588 -0.21148436 -0.092600085
-0.21299107 5.3017313e-05 -0.26722887 -0.049762446 0.26520804 0.34411868 0.03599525 0.023759296
00000000: a0c3 94be c482 9c3e 3973 f73c f6ac 583e
00000010: eba7 a33e 376e b0bd c28e d23e 6f90 8a3e
00000020: fee1 c53e b4ac a2be 7a8c 203c 7c46 c43d
00000030: 9f8a a7be f2ca 773e 022f 5b3e aa2d 1a3e
00000040: 84ec 6f3e 68ba ecbd 4a36 543c 7c64 76be
00000050: 1dd6 a3be 33c7 5abe d585 673e 6c13 863e
00000060: dc2d 89be 2758 f33d 45b0 88be 3857 97be
00000070: 226a 373e b45e b73e 5e8f 9a3d be22 223e
00000080: a3e9 0ebf c690 5abd dea7 203f 66cb 813e
00000090: 8737 2d3e 3a43 cdbd 5b8f 58be 1da5 bdbd
000000a0: 551a 5abe e85e 5e38 39d2 88be b5d3 4bbd
000000b0: 59c9 873e 5330 b03e c16f 133d dba2 c23c

h.1.attn.c_proj.bias_resize f4 [4]
-0.060439337 -0.022395613 -0.043744877 0.0033351416
00000000: 3d8f 77bd 0177 b7bc d42d 33bd 6492 5a3b

h.1.attn.c_proj.weight_resize f4 [4, 4]
-0.097107984 -0.0015849192 0.11220377 -0.039542098 0.10128677 0.053127922 -0.084767796 0.06201686
-0.022463273 0.041171942 0.054640222 0.08282179 0.056742992 0.08809501 0.051447146 -0.0733975
00000000: 8de0 c6bd 10bd cfba 17cb e53d e5f6 21bd
00000010: 706f cf3d aa9c 593d bd9a adbd 6405 7e3d
00000020: e604 b8bc e9a3 283d 6dce 5f3d 789e a93d
00000030: 576b 683d 286b b43d 3eba 523d 6e51 96bd

h.1.ln_1.bias_resize f4 [4]
-0.003629319 -0.006226979 -0.003627739 -0.001109105
00000000: ded9 6dbb b00b ccbb 5cbf 6dbb 635f 91ba

h.1.ln_1.weight_resize f4 [4]
0.20863466 0.21846423 0.21828215 0.23718245
00000000: 53a4 553e 16b5 5f3e 5b85 5f3e f5df 723e

h.1.ln_2.bias_resize f4 [4]
0.020208616 0.02157885 -0.015536383 -0.018125128
00000000: 8a8c a53c 21c6 b03c 508c 7ebc 267b 94bc

h.1.ln_2.weight_resize f4 [4]
0.2241247 0.25309175 0.2446141 0.25479886
00000000: f280 653e 3e95 813e 1e7c 7a3e ff74 823e

h.1.mlp.c_fc.bias_resize f4 [16]
-0.062416323 -0.18282636 -0.020162573 0.010771597 0.022323234 -0.056929465 -0.038720436 -0.15506026
0.09069657 -0.031780366 -0.02192871 -0.122690655 -0.26259267 -0.1247129 -0.13965751 -0.00036575654
00000000: 42a8 7fbd d536 3bbe fb2b a5bc 5a7b 303c
00000010: 37df b63c df2e 69bd 5299 1ebd 1ec8 1ebe
00000020: 20bf b93d 212c 02bd d7a3 b3bc 3d45 fbbd
00000030: 8c72 86be 7a69 ffbd 6102 0fbe 03c3 bfb9

h.1.mlp.c_fc.weight_resize f4 [4, 16]
-0.007836378 -0.22549225 -0.020743547 -0.08979682 -0.20800786 -0.06794453 -0.23952344 0.081088826
-0.058814213 0.054998502 -0.023909302 0.020878712 0.035428476 -0.18369061 0.057305537 -0.04066749
-0.05081905 -0.16056605 0.14192025 -0.07695635 0.08999596 0.11915215 -0.07141238 0.0023293279
-0.11949995 0.1300569 -0.046315134 0.18544391 0.016483478 -0.08151172 -0.04768876 -0.038816195
-0.034716975 0.009176357 0.009614546 0.23648486 0.009059455 -0.223559 0.03498089 0.022810481
0.30856603 -0.08039947 0.09842974 0.04025703 0.016443914 0.008168828 0.1736582 0.00092572445
0.056661513 -0.19302261 0.16492057 -0.18750012 0.06580507 -0.22707732 -0.1762116 0.025947584
0.08002603 0.008800232 -0.045793 -0.0629844 -0.04956203 0.10167722 0.2112973 -0.021112354
00000000: 2764 00bc 71e7 66be 5fee a9bc 65e7 b7bd
00000010: 0300 55be 8026 8bbd a245 75be e611 a63d
00000020: 2ce7 70bd 1c46 613d 71dd c3bc d509 ab3c
00000030: 731d 113d 6419 3cbe 36b9 6a3d f492 26bd
00000040: a327 50bd 6d6b 24be 8b53 113e 4a9b 9dbd
00000050: cd4f b83d 0b06 f43d a740 92bd a3a7 183b
00000060: 64bc f4bd a32d 053e f0b4 3dbd 02e5 3d3e
00000070: 5c08 873c 9eef a6bd 4a55 43bd bbfd 1ebd
00000080: 6333 0ebd 6e58 163c 5486 1d3c 1629 723e
00000090: 1c6e 143c a7ec 64be 1f48 0f3d 0cdd ba3c
000000a0: 5efc 9d3e 7aa8 a4bd 8895 c93d 8ee4 243d
000000b0: 63b5 863c 8cd6 053c 75d3 313e 51ac 723a
000000c0: e715 683d b8a7 45be f0e0 283e 0800 40be
000000d0: cfc4 863d f586 68be d070 34be 0790 d43c
000000e0: b0e4 a33d d92e 103c 7191 3bbd f7fd 80bd
000000f0: 8e01 4bbd 253c d03d 525e 583e d1f3 acbc

h.1.mlp.c_proj.bias_resize f4 [4]
-0.023140883 0.046085432 -0.05529907 -0.20081061
00000000: f391 bdbc 14c4 3c3d 4781 62bd 4ca1 4dbe

h.1.mlp.c_proj.weight_resize f4 [16, 4]
0.11119561 -0.026257275 -0.033180084 0.05729765 -0.20991525 -0.15494777 -0.087658614 -0.30753064
0.07960584 -0.048435397 0.020845188 -0.04837642 0.08424022 0.09228307 -0.15902944 0.16622618
0.07800123 0.002424325 0.06649869 -0.06141139 0.06169762 0.06821171 0.097620405 0.08993067
0.083304405 0.07797738 0.012529797 0.21596374 -0.06736116 -0.005520307 0.0131211225 -0.030747019
-0.22214083 -0.14536995 0.058632415 0.21842586 0.020681791 -0.044220418 -0.06892263 0.08434014
0.051086422 -0.0074552223 -0.0072396207 0.0140311085 -0.017244687 0.07993996 -0.043629956 -0.0013481833
-0.06191161 0.052671038 0.018875781 0.006801165 0.11094018 0.0827897 0.036909338 -0.074276865
0.0663324 -0.035144713 -0.016152922 -0.009333483 0.1289936 -0.096257605 -0.010647152 -0.050431006
00000000: 86ba e33d 7f19 d7bc d7e7 07bd f1b0 6a3d
00000010: 06f4 56be a1aa 1ebe 5c86 b3bd a874 9dbe
00000020: 6308 a33d 3264 46bd 87c3 aa3c 5a26 46bd
00000030: 2386 ac3d e8fe bc3d 9dd8 22be 3237 2a3e
00000040: 1cbf 9f3d 6de1 1e3b 7730 883d 828a 7bbd
00000050: a5b6 7c3d 95b2 8b3d 35ed c73d 922d b83d
00000060: 809b aa3d 9bb2 9f3d c749 4d3c 9925 5d3e
00000070: a6f4 89bd b1e3 b4bb faf9 563c 2ce1 fbbc
00000080: e378 63be dcdb 14be 8b28 703d 07ab 5f3e
00000090: dc6c a93c 7820 35bd 4f27 8dbd 86ba ac3d
000000a0: ff3f 513d f04a f4bb 573a edbb bce2 653c
000000b0: bb44 8dbc 90b7 a33d 53b5 32bd 86b5 b0ba
000000c0: 0797 7dbd 96bd 573d 62a1 9a3c 4fdc de3b
000000d0: 9b34 e33d a58d a93d 3f2e 173d 781e 98bd
000000e0: 48d9 873d e7f3 0fbd 2253 84bc 77eb 18bc
000000f0: e616 043e b522 c5bd 6471 2ebc be90 4ebd

h.10.attn.bias_resize f4 [1, 1, 8, 8]
1.0 0.0 0.0 0.0 0.0 0.0 0.0 0.0
1.0 1.0 0.0 0.0 0.0 0.0 0.0 0.0
1.0 1.0 1.0 0.0 0.0 0.0 0.0 0.0
1.0 1.0 1.0 1.0 0.0 0.0 0.0 0.0
1.0 1.0 1.0 1.0 1.0 0.0 0.0 0.0
1.0 1.0 1.0 1.0 1.0 1.0 0.0 0.0
1.0 1.0 1.0 1.0 1.0 1.0 1.0 0.0
1.0 1.0 1.0 1.0 1.0 1.0 1.0 1.0
00000000: 0000 803f 0000 0000 0000 0000 0000 0000
00000010: 0000 0000 0000 0000 0000 0000 0000 0000
00000020: 0000 803f 0000 803f 0000 0000 0000 0000
00000030: 0000 0000 0000 0000 0000 0000 0000 0000
00000040: 0000 803f 0000 803f 0000 803f 0000 0000
00000050: 0000 0000 0000 0000 0000 0000 0000 0000
00000060: 0000 803f 0000 803f 0000 803f 0000 803f
00000070: 0000 0000 0000 0000 0000 0000 0000 0000
00000080: 0000 803f 0000 803f 0000 803f 0000 803f
00000090: 0000 803f 0000 0000 0000 0000 0000 0000
000000a0: 0000 803f 0000 803f 0000 803f 0000 803f
000000b0: 0000 803f 0000 803f 0000 0000 0000 0000
000000c0: 0000 803f 0000 803f 0000 803f 0000 803f
000000d0: 0000 803f 0000 803f 0000 803f 0000 0000
000000e0: 0000 803f 0000 803f 0000 803f 0000 803f
000000f0: 0000 803f 0000 803f 0000 803f 0000 803f

h.10.attn.c_attn.bias_resize f4 [12]
-0.030123198 0.13602333 -0.3841572 0.33693796 -0.17340927 -0.15652934 0.34522042 -0.013852311
-0.13725153 -0.19260846 0.019386724 -0.25850087
00000000: edc4 f6bc b349 0b3e 41b0 c4be 2283 ac3e
00000010: 3392 31be 3a49 20be bbc0 b03e cef4 62bc
00000020: aa8b 0cbe 273b 45be e8d0 9e3c 3a5a 84be

h.10.attn.c_attn.weight_resize f4 [4, 12]
0.2199956 0.26372373 0.042240836 -0.0634053 0.12883185 -0.016305882 0.10259885 -0.038481638
-0.07162256 0.020925533 0.08731022 -0.16020453 -0.12694412 -0.021477643 -0.09510952 -0.1333096
0.084869295 0.15505877 -0.026881818 0.12385231 -0.024331583 -0.07196434 0.063618906 -0.014844375
0.070925884 -0.072635934 -0.025265645 0.08670996 0.11735535 -0.036962837 0.10166984 0.120782554
0.054521877 0.22623383 0.15064256 -0.069863215 -0.079770364 -0.17664175 -0.049572174 -0.05440034
0.033829954 0.13584098 0.26025376 0.06303259 0.10562922 -0.097124636 0.011343977 -0.068509124
00000000: 8746 613e cc06 873e ba04 2d3d a3da 81bd
00000010: 7fec 033e ea93 85bc 591f d23d ec9e 1dbd
00000020: d9ae 92bd 066c ab3c b3cf b23d a80c 24be
00000030: a4fd 01be e2f1 afbc c8c8 c2bd 5082 08be
00000040: f4cf ad3d bac7 1e3e 4237 dcbc 48a6 fd3d
00000050: 0753 c7bc 0a62 93bd a14a 823d d235 73bc
00000060: 9741 913d 26c2 94bd e6f9 cebc fe94 b13d
00000070: 0058 f03d 5866 17bd 4738 d03d d85c f73d
00000080: 5552 5f3d d7a9 673e 0b42 1a3e 7214 8fbd
00000090: a55e a3bd 93e1 34be 310c 4bbd e4d2 5ebd
000000a0: 4791 0a3d e619 0b3e fb3f 853e 3b17 813d
000000b0: 2254 d83d 48e9 c6bd 17dc 393c 834e 8cbd

h.10.attn.c_proj.bias_resize f4 [4]
-0.012379296 0.014348222 -0.0044527324 -0.045072738
00000000: 88d2 4abc ce14 6b3c 3ae8 91bb 319e 38bd

h.10.attn.c_proj.weight_resize f4 [4, 4]
-0.0077405917 -0.5188017 0.07828357 0.16056594 -0.30116877 0.2455107 -0.088346206 -0.3112447
-0.36931267 0.15059772 0.20520575 -0.41755223 -0.075723276 0.37395397 -0.42579618 0.22965987
00000000: caa4 fdbb 30d0 04bf 2353 a03d 666b 243e
00000010: cb32 9abe 2867 7b3e dbee b4bd 775b 9fbe
00000020: 8d16 bdbe 4a36 1a3e 7521 523e 68c9 d5be
00000030: ce14 9bbd e576 bf3e f501 dabe f52b 6b3e

h.10.ln_1.bias_resize f4 [4]
0.030510496 0.0060018427 0.04876812 0.011650015
00000000: 26f1 f93c 1bab c43b 15c1 473d b4df 3e3c

h.10.ln_1.weight_resize f4 [4]
0.42693746 0.37989825 0.38925624 0.36285722
00000000: 8c97 da3e 0682 c23e 984c c73e 6cc8 b93e

h.10.ln_2.bias_resize f4 [4]
-0.010358157 0.013819781 0.028260035 0.04655716
00000000: 42b5 29bc 5d6c 623c 9781 e73c b8b2 3e3d

h.10.ln_2.weight_resize f4 [4]
0.2975755 0.26659876 0.2977754 0.27404353
00000000: d15b 983e a27f 883e 0476 983e 6f4f 8c3e

h.10.mlp.c_fc.bias_resize f4 [16]
-0.06783217 0.049216874 -0.14397489 -0.058545116 -0.06863726 0.029190782 0.027426822 0.004116839
-0.14722288 -0.25096467 -0.087945856 -0.038547106 -0.1258708 -0.020164317 -0.16800426 -0.07167855
00000000: 98eb 8abd a297 493d 276e 13be 01cd 6fbd
00000010: b191 8cbd 8221 ef3c 37ae e03c 8ce6 863b
00000020: 98c1 16be 717e 80be f51c b4bd 92e3 1dbd
00000030: 46e4 00be a32f a5bc 4f09 2cbe 34cc 92bd

h.10.mlp.c_fc.weight_resize f4 [4, 16]
-0.046984144 -0.18441042 0.095354155 0.07900204 0.046656366 -0.12809521 -0.15673156 -0.09681935
-0.1733686 -0.017700205 0.08925704 0.12428234 -0.05108423 -0.05627044 0.037322734 0.08578354
0.046512514 -0.2866079 -0.047526423 -0.066829644 -0.06730098 0.052411705 -0.026974745 -0.12399328
0.05481562 -0.08049692 0.043869324 0.049779963 -0.06602663 -0.17214802 -0.09630161 -0.13443221
0.17471604 -0.056510728 -0.08192946 0.01615215 0.08337033 -0.14659835 0.17259274 -0.022090178
0.21092786 -0.13471855 0.04903013 0.11410163 -0.0978638 0.11538918 0.24984047 -0.044116635
-0.069072224 -0.06619759 -0.08949322 -0.009591452 -0.085518114 -0.09237224 -0.0063583916 0.01236993
0.16800323 0.04147845 -0.13024706 0.123686686 0.06732278 0.1608202 -0.0029335143 0.17565618
00000000: 7272 40bd 16d6 3cbe 0a49 c33d d2cb a13d
00000010: bf1a 3f3d 642b 03be 3d7e 20be 3949 c6bd
00000020: 8a87 31be 0500 91bc 65cc b63d bd87 fe3d
00000030: b33d 51bd d57b 66bd b9df 183d 48af af3d
00000040: e883 3e3d 45be 92be 11ab 42bd fbdd 88bd
00000050: 19d5 89bd a8ad 563d 24fa dcbc 30f0 fdbd
00000060: 5886 603d 92db a4bd 52b0 333d 13e6 4b3d
00000070: f838 87bd 9247 30be c739 c5bd 99a8 09be
00000080: c3e8 323e cb77 67bd a2ca a7bd 8451 843c
00000090: 10be aa3d e11d 16be 27bc 303e 76f6 b4bc
000000a0: 79fd 573e a9f3 09be d1d3 483d 1eae e93d
000000b0: d16c c8bd 2a51 ec3d 2ed6 7f3e a5b3 34bd
000000c0: bd75 8dbd 9a92 87bd 3948 b7bd 7725 1dbc
000000d0: 1f24 afbd a82d bdbd 0e5a d0bb 3fab 4a3c
000000e0: 0a09 2c3e 4fe5 293d 7c5f 05be 724f fd3d
000000f0: 87e0 893d 0dae 243e 3440 40bb 37df 333e

h.10.mlp.c_proj.bias_resize f4 [4]
-0.03814336 0.025599178 -0.2010368 0.14348195
00000000: 363c 1cbd 5eb5 d13c 97dc 4dbe efec 123e

h.10.mlp.c_proj.weight_resize f4 [16, 4]
0.052633956 0.20368959 -0.22806402 0.0914946 0.1654268 -0.20376275 0.016154058 0.2918058
0.13519853 0.11287016 -0.035422117 0.08649365 0.12617242 -0.09712734 0.14078426 -0.041340534
0.001627103 0.26712418 0.11230127 0.36656564 0.2452667 -0.06754082 -0.09669693 0.052949607
-0.02146547 -0.028856365 0.3385144 0.24920899 -0.06976889 0.14464733 0.0019200272 0.14405726
0.10276482 -0.10704674 -0.14507452 -0.031703975 -0.036046356 0.09845126 0.08596979 0.434807
-0.25460708 -0.106827006 0.14209396 -0.16278444 0.009754139 0.1501364 -0.0069726044 -0.1532918
0.15229268 -0.12300316 0.1683688 0.15079345 -0.29914993 -0.3193681 -0.07744898 0.28770888
-0.43715215 0.27963194 0.14458974 0.17855653 0.24271373 -0.21525589 -0.032860115 -0.06734056
00000000: b496 573d 0194 503e 9d89 69be 8561 bb3d
00000010: a565 293e 2fa7 50be 8455 843c 9267 953e
00000020: 7c71 0a3e 7828 e73d c816 11bd 9523 b13d
00000030: 5833 013e b3ea c6bd c029 103e b154 29bd
00000040: 8444 d53a 80c4 883e 35fe e53d 7eae bb3e
00000050: 3227 7b3e d752 8abd 0a09 c6bd b0e1 583d
00000060: 5ad8 afbc 2f64 ecbc c251 ad3e a430 7f3e
00000070: fee2 8ebd 6e1e 143e 6ca9 fb3a bf83 133e
00000080: 5d76 d23d 523b dbbd 6a8e 14be 07dc 01bd
00000090: 58a5 13bd d0a0 c93d ee10 b03d 069f de3e
000000a0: dc5b 82be 1ec8 dabd 1481 113e f7b0 26be
000000b0: d3cf 1f3c 5bbd 193e 727a e4bb 87f8 1cbe
000000c0: 9df2 1b3e 15e9 fbbd df68 2c3e 9969 1a3e
000000d0: 2e2a 99be 3784 a3be 929d 9ebd 944e 933e
000000e0: 68d2 dfbe eb2b 8f3e 550f 143e 86d7 363e
000000f0: f389 783e 0a6c 5cbe 5498 06bd d9e9 89bd

h.11.attn.bias_resize f4 [1, 1, 8, 8]
1.0 0.0 0.0 0.0 0.0 0.0 0.0 0.0
1.0 1.0 0.0 0.0 0.0 0.0 0.0 0.0
1.0 1.0 1.0 0.0 0.0 0.0 0.0 0.0
1.0 1.0 1.0 1.0 0.0 0.0 0.0 0.0
1.0 1.0 1.0 1.0 1.0 0.0 0.0 0.0
1.0 1.0 1.0 1.0 1.0 1.0 0.0 0.0
1.0 1.0 1.0 1.0 1.0 1.0 1.0 0.0
1.0 1.0 1.0 1.0 1.0 1.0 1.0 1.0
00000000: 0000 803f 0000 0000 0000 0000 0000 0000
00000010: 0000 0000 0000 0000 0000 0000 0000 0000
00000020: 0000 803f 0000 803f 0000 0000 0000 0000
00000030: 0000 0000 0000 0000 0000 0000 0000 0000
00000040: 0000 803f 0000 803f 0000 803f 0000 0000
00000050: 0000 0000 0000 0000 0000 0000 0000 0000
00000060: 0000 803f 0000 803f 0000 803f 0000 803f
00000070: 0000 0000 0000 0000 0000 0000 0000 0000
00000080: 0000 803f 0000 803f 0000 803f 0000 803f
00000090: 0000 803f 0000 0000 0000 0000 0000 0000
000000a0: 0000 803f 0000 803f 0000 803f 0000 803f
000000b0: 0000 803f 0000 803f 0000 0000 0000 0000
000000c0: 0000 803f 0000 803f 0000 803f 0000 803f
000000d0: 0000 803f 0000 803f 0000 803f 0000 0000
000000e0: 0000 803f 0000 803f 0000 803f 0000 803f
000000f0: 0000 803f 0000 803f 0000 803f 0000 803f

h.11.attn.c_attn.bias_resize f4 [12]
-0.22222382 0.05490632 0.033070818 0.15804982 0.030288696 -0.2349749 -0.30648315 -0.1160963
0.11942906 -0.18294057 0.09135613 0.1770371
00000000: a48e 63be 73e5 603d 4475 073d d0d7 213e
00000010: 0020 f83c 439d 70be 5ceb 9cbe e6c3 edbd
00000020: 3997 f43d c654 3bbe ec18 bb3d 3749 353e

h.11.attn.c_attn.weight_resize f4 [4, 12]
-0.21754476 0.06076981 -0.06370636 -0.010534803 0.03727849 0.038609497 0.0018609011 0.072564386
-0.01639636 -0.065398544 0.1312516 -0.14517498 0.0073473714 -0.13599165 -0.036531065 0.0729432
0.09227916 -0.020148939 -0.0432668 0.05525691 0.10096079 0.13059452 -0.014914493 0.019957073
0.1679093 -0.10133508 0.071410604 0.04504196 0.027181547 0.059565164 0.11429852 -0.09378118
-0.024632368 -0.084434085 -0.053080972 -0.198891 -0.021521676 -0.04088093 -0.050048754 0.011638433
0.063371375 0.1460656 0.10541413 0.16356294 -0.039433 0.05827348 0.06512464 0.06689621
00000000: 0ec4 5ebe c4e9 783d 7b78 82bd 2b9a 2cbc
00000010: 54b1 183d fe24 1e3d 7be9 f33a a39c 943d
00000020: a951 86bc acef 85bd d266 063e c0a8 14be
00000030: 38c2 f03b 6541 0bbe 99a1 15bd 3f63 953d
00000040: dbfc bc3d 630f a5bc 8738 31bd 1255 623d
00000050: 88c4 ce3d 92ba 053e eb5b 74bc 047d a33c
00000060: 6af0 2b3e c488 cfbd b93f 923d eb7d 383d
00000070: d6ab de3c 9afa 733d 5815 ea3d 5910 c0bd
00000080: d2c9 c9bc c7eb acbd 6f6b 59bd 15aa 4bbe
00000090: 3a4e b0bc c372 27bd ecff 4cbd 20af 3e3c
000000a0: dac8 813d 3892 153e 5de3 d73d 0b7d 273e
000000b0: 7f84 21bd 2cb0 6e3d 1160 853d e100 893d

h.11.attn.c_proj.bias_resize f4 [4]
0.11853152 -0.1395849 -0.17365293 0.16457175
00000000: a7c0 f23d 58ef 0ebe 13d2 31be 7f85 283e

h.11.attn.c_proj.weight_resize f4 [4, 4]
0.11216072 0.15094201 0.06990781 0.08701035 -0.08659408 -0.07019029 -0.079596 -0.059787773
-0.01339097 -0.028654007 0.04423248 -0.106848955 0.016436823 0.03497238 -0.121621 0.07031301
00000000: 85b4 e53d 8b90 1a3e d32b 8f3d 7b32 b23d
00000010: 3d58 b1bd edbf 8fbd 3a03 a3bd 06e4 74bd
00000020: cd65 5bbc cfbb eabc 1e2d 353d a0d3 dabd
00000030: 84a6 863c 333f 0f3d 6e14 f9bd 4400 903d

h.11.ln_1.bias_resize f4 [4]
0.050956924 0.005306261 0.07195226 0.008011031
00000000: 35b8 503d 25e0 ad3b b55b 933d b340 033c

h.11.ln_1.weight_resize f4 [4]
0.5292966 0.48730242 0.48758662 0.4451123
00000000: fb7f 073f b47f f93e f4a4 f93e c2e5 e33e

h.11.ln_2.bias_resize f4 [4]
-0.0019770134 0.020055145 0.038333677 0.00030216447
00000000: c890 01bb b04a a43c c603 1d3d d46b 9e39

h.11.ln_2.weight_resize f4 [4]
0.499047 0.47163922 0.54100865 0.4644085
00000000: 1783 ff3e b27a f13e 8b7f 0a3f f3c6 ed3e

h.11.mlp.c_fc.bias_resize f4 [16]
-0.038226597 -0.16373308 0.2821155 -0.1026224 0.024077358 -0.083214656 -0.10605514 -0.1339538
-0.16108991 -0.1813819 -0.24299252 -0.15822493 -0.06588169 -0.09947309 -0.19814871 -0.0548067
00000000: 7e93 1cbd a5a9 27be 7171 903e b12b d2bd
00000010: e13d c53c 726c aabd 7033 d9bd 2f2b 09be
00000020: c1f4 24be 2dbc 39be 08d3 78be b705 22be
00000030: fbec 86bd 8cb8 cbbd 7fe7 4abe fe7c 60bd

h.11.mlp.c_fc.weight_resize f4 [4, 16]
-0.14395316 0.21767819 -0.08208921 -0.08232471 -0.07853988 0.27417234 -0.13349283 0.09569077
-0.2270157 0.042329695 -0.017181076 0.14710085 0.032313697 0.013547929 0.2348857 -0.06085814
0.14036295 -0.043409187 -0.07594838 -0.11891596 -0.008058515 -0.14948222 0.13572925 0.0038833416
-0.03649662 0.0873303 0.14259021 0.0038615959 -0.2586192 -0.19466569 0.054914124 -0.16442455
-0.089824535 -0.15413415 0.04984421 -0.17422484 -0.10546903 -0.12849917 0.07420182 0.05025936
-0.08198302 0.28426555 0.054293294 0.09274466 0.01888128 0.138084 -0.047498688 -0.013686733
0.061360974 -0.031242171 0.008973513 0.08156114 0.08323617 0.25986004 -0.046665397 -0.118180305
-0.071750864 -0.19246249 -0.090677366 -0.16987655 -0.011632403 -0.15260784 -0.13900846 -0.1404551
00000000: 7568 13be 08e7 5e3e 631e a8bd dc99 a8bd
00000010: 84d9 a0bd 5160 8c3e 58b2 08be 86f9 c33d
00000020: ce76 68be e761 2d3d 54bf 8cbc 9ba1 163e
00000030: 5e5b 043d 22f8 5d3c e085 703e 6346 79bd
00000040: 4ebb 0f3e d5cd 31bd d38a 9bbd 368a f3bd
00000050: dd07 04bc de11 19be 9cfc 0a3e a97f 7e3b
00000060: 7b7d 15bd 3ada b23d 2b03 123e d412 7d3b
00000070: bc69 84be 7156 47be a2ed 603d e95e 28be
00000080: edf5 b7bd 58d5 1dbe 7129 4c3d ff67 32be
00000090: 2600 d8bd 4995 03be 20f7 973d c2dc 4d3d
000000a0: b7e6 a7bd 418b 913e a562 5e3d eaf0 bd3d
000000b0: eaac 9a3c e465 0d3e fc8d 42bd 523e 60bc
000000c0: a555 7b3d 95ef ffbc a405 133c 8709 a73d
000000d0: ba77 aa3d 600c 853e 3724 3fbd 8408 f2bd
000000e0: 1ef2 92bd e314 45be 0eb5 b9bd 1ef4 2dbe
000000f0: d695 3ebc 3b45 1cbe 3c58 0ebe 76d3 0fbe

h.11.mlp.c_proj.bias_resize f4 [4]
0.10572354 0.11879222 0.006737913 0.05425175
00000000: 9585 d83d 5649 f33d b6c9 dc3b 1537 5e3d

h.11.mlp.c_proj.weight_resize f4 [16, 4]
0.06805935 0.092002206 -0.031020174 -0.20520318 0.17020133 0.006635447 0.1141144 -0.042323846
-0.028317977 0.23626181 -0.068777524 0.19406421 0.15514342 -0.07864149 -0.14640322 0.15730938
0.21751058 0.22206894 -0.014488894 0.116312794 0.16974711 -0.0048526465 -0.011961613 -0.29079163
0.39726588 -0.10937255 -0.24250264 0.688298 -0.112415016 -0.088859335 -0.3694956 0.007615151
0.11822242 -0.094439454 -0.07210435 0.15059462 0.053480327 0.22366314 0.38944608 0.40571022
0.32258242 -0.12247885 0.25496432 0.22389238 -0.16839102 0.020298323 -0.14069173 0.01703994
-0.06255535 0.05991006 0.05371168 -0.34065458 -0.16686419 -0.29211482 0.15190263 -0.026724873
0.04429892 -0.16221708 0.1573456 -0.26995212 0.23509358 -0.13066094 0.2640904 -0.1027678
00000000: b362 8b3d a76b bc3d 051e febc c820 52be
00000010: 4249 2e3e 2a6e d93b d0b4 e93d c55b 2dbd
00000020: 1afb e7bc 9eee 713e 3bdb 8cbd c5b8 463e
00000030: ebdd 1e3e ca0e a1bd baea 15be b615 213e
00000040: 18bb 5e3e 0a66 633e d362 6dbc 6735 ee3d
00000050: 30d2 2d3e f302 9fbb a4fa 43bc a4e2 94be
00000060: 6f66 cb3e b7fe dfbd 9d52 78be 4c34 303f
00000070: d839 e6bd e2fb b5bd 872e bdbe 8488 f93b
00000080: 991e f23d 7969 c1bd 72ab 93bd 7a35 1a3e
00000090: 300e 5b3d f307 653e 7a65 c73e 40b9 cf3e
000000a0: 8629 a53e 31d6 fabd af8a 823e 0b44 653e
000000b0: b26e 2cbe ab48 a63c 7e11 10be 5897 8b3c
000000c0: 051d 80bd 4064 753d c700 5c3d 476a aebe
000000d0: 72de 2abe 1390 95be 5d8c 1b3e 1fee dabc
000000e0: c972 353d 3c1c 26be 341f 213e 2a37 8abe
000000f0: 5fbc 703e fbcb 05be db36 873e ed77 d2bd

h.2.attn.bias_resize f4 [1, 1, 8, 8]
1.0 0.0 0.0 0.0 0.0 0.0 0.0 0.0
1.0 1.0 0.0 0.0 0.0 0.0 0.0 0.0
1.0 1.0 1.0 0.0 0.0 0.0 0.0 0.0
1.0 1.0 1.0 1.0 0.0 0.0 0.0 0.0
1.0 1.0 1.0 1.0 1.0 0.0 0.0 0.0
1.0 1.0 1.0 1.0 1.0 1.0 0.0 0.0
1.0 1.0 1.0 1.0 1.0 1.0 1.0 0.0
1.0 1.0 1.0 1.0 1.0 1.0 1.0 1.0
00000000: 0000 803f 0000 0000 0000 0000 0000 0000
00000010: 0000 0000 0000 0000 0000 0000 0000 0000
00000020: 0000 803f 0000 803f 0000 0000 0000 0000
00000030: 0000 0000 0000 0000 0000 0000 0000 0000
00000040: 0000 803f 0000 803f 0000 803f 0000 0000
00000050: 0000 0000 0000 0000 0000 0000 0000 0000
00000060: 0000 803f 0000 803f 0000 803f 0000 803f
00000070: 0000 0000 0000 0000 0000 0000 0000 0000
00000080: 0000 803f 0000 803f 0000 803f 0000 803f
00000090: 0000 803f 0000 0000 0000 0000 0000 0000
000000a0: 0000 803f 0000 803f 0000 803f 0000 803f
000000b0: 0000 803f 0000 803f 0000 0000 0000 0000
000000c0: 0000 803f 0000 803f 0000 803f 0000 803f
000000d0: 0000 803f 0000 803f 0000 803f 0000 0000
000000e0: 0000 803f 0000 803f 0000 803f 0000 803f
000000f0: 0000 803f 0000 803f 0000 803f 0000 803f

h.2.attn.c_attn.bias_resize f4 [12]
-0.054097984 -0.0644474 0.031128775 -0.082882226 0.07840359 0.03914358 -0.45591456 -0.118760556
0.3670335 0.028461361 -0.08913631 0.28048715
00000000: d995 5dbd 00fd 83bd c601 ff3c 28be a9bd
00000010: 1092 a03d 0555 203d a26d e9be bc38 f3bd
00000020: d1eb bb3e cd27 e93c 198d b6bd 039c 8f3e

h.2.attn.c_attn.weight_resize f4 [4, 12]
-0.26592362 0.02789675 0.072805166 0.05095168 0.020417947 -0.047518414 0.04381553 0.0060153534
-0.114969574 -0.17733477 0.30928606 0.0056484127 0.08960388 -0.27270448 0.14847396 -0.17960812
0.01788955 0.099938765 0.039435137 -0.024844 -0.12958767 0.22043331 0.17204843 0.22024006
0.05936845 0.17100939 -0.39674523 -0.15914507 0.14461797 -0.20505407 0.12749597 0.321397
0.13995846 -0.10619818 0.045285575 0.045598604 -0.0071525453 0.109454446 -0.15825303 -0.2646342
0.092085086 0.07014948 -0.19062495 -0.24360456 -0.09368397 0.07878212 0.2973635 0.11210034
00000000: 2427 88be ba87 e43c e01a 953d b5b2 503d
00000010: 8a43 a73c aba2 42bd ea77 333d 711c c53b
00000020: 2b75 ebbd 3f97 35be be5a 9e3e 5216 b93b
00000030: 3d82 b73d ec9f 8bbe 8f09 183e 31eb 37be
00000040: 1b8d 923c b2ac cc3d bd86 213d a585 cbbc
00000050: a1b2 04be 45b9 613e 772d 303e 9c86 613e
00000060: 552c 733d 161d 2f3e 3122 cbbe edf6 22be
00000070: bc16 143e b2f9 51be 4e8e 023e 268e a43e
00000080: 4551 0f3e 6e7e d9bd 5e7d 393d 9ac5 3a3d
00000090: e65f eabb a729 e03d 150d 22be 227e 87be
000000a0: 1b97 bc3d 88aa 8f3d 3033 43be 7973 79be
000000b0: 62dd bfbd 8558 a13d 0740 983e dd94 e53d

h.2.attn.c_proj.bias_resize f4 [4]
0.02070035 -0.26381752 -0.109437965 0.28752035
00000000: c893 a93c 1713 87be 0321 e0bd de35 933e

h.2.attn.c_proj.weight_resize f4 [4, 4]
-0.013124972 -0.066602826 -0.06971352 -0.03071072 0.05917007 0.0094731795 -0.03745121 0.044924486
0.029142126 0.09272826 -0.0022214164 -0.23328316 -0.053520165 0.08213692 -0.013421804 0.040861033
00000000: 1f0a 57bc 1067 88bd f6c5 8ebd 0c95 fbbc
00000010: 515c 723d 6535 1b3c 7166 19bd bd02 383d
00000020: 78bb ee3c 50e8 bd3d 2f95 11bb c8e1 6ebe
00000030: f637 5bbd 6737 a83d 20e7 5bbc e65d 273d

h.2.ln_1.bias_resize f4 [4]
0.0049160044 -0.001468558 0.0018402474 0.0014337883
00000000: 6f16 a13b a17c c0ba 7534 f13a f4ed bb3a

h.2.ln_1.weight_resize f4 [4]
0.18706207 0.22268294 0.23664686 0.24180138
00000000: 338d 3f3e ff06 643e 8e53 723e c89a 773e

h.2.ln_2.bias_resize f4 [4]
0.043191005 0.024578394 0.004377962 -0.02795151
00000000: 0de9 303d a158 c93c 0275 8f3b 91fa e4bc

h.2.ln_2.weight_resize f4 [4]
0.26464513 0.305662 0.2836024 0.31934303
00000000: 917f 873e bb7f 9c3e 5534 913e ee80 a33e

h.2.mlp.c_fc.bias_resize f4 [16]
-0.013781672 -0.2093813 -0.04884542 -0.19224933 -0.11866487 -0.23093653 -0.1442704 -0.15521297
-0.014092565 -0.12870885 0.04805129 -0.015712 -0.032564897 -0.01743674 -0.22636084 -0.28047892
00000000: 86cc 61bc 0d68 56be 2312 48bd 02dd 44be
00000010: 9106 f3bd a07a 6cbe 9fbb 13be 26f0 1ebe
00000020: 80e4 66bc 41cc 03be 6ed1 443d 74b6 80bc
00000030: c562 05bd 7fd7 8ebc 23cb 67be ef9a 8fbe

h.2.mlp.c_fc.weight_resize f4 [4, 16]
0.013656401 0.36799356 -0.10676409 -0.24671087 0.15207902 -0.047691595 -0.08455007 -0.014260069
-0.05450013 -0.032515258 0.04090454 0.06659104 -0.2586473 0.12520322 0.12247233 0.02965572
0.24906233 -0.048355192 -0.08925656 -0.33289576 0.14615907 -0.08813732 -0.32589144 -0.13009769
0.18520062 -0.1355339 -0.03966485 0.00931515 -0.122401446 0.18549104 -0.0052455906 -0.12630515
0.0006136579 -0.09748591 0.15492803 -0.06423495 0.12523381 -0.015122421 -0.0772277 -0.1630889
0.02600679 -0.03375266 -0.07768947 -0.06493006 -0.15417233 0.23089834 0.10179369 -0.07543097
0.004600649 0.07211913 -0.07601031 -0.11563281 -0.244634 0.10724751 -0.18982184 0.016687708
-0.01972765 0.007207283 -0.11159727 -0.12767102 0.12493211 -0.030040037 -0.15368424 -0.1533347
00000000: 19bf 5f3c a769 bc3e 22a7 dabd c6a1 7cbe
00000010: 9aba 1b3e 4358 43bd 9628 adbd 10a3 69bc
00000020: 873b 5fbd b82e 05bd 858b 273d e260 883d
00000030: 6b6d 84be 4635 003e c6d2 fa3d 8df0 f23c
00000040: 320a 7f3e 1810 46bd 25cc b6bd 5071 aabe
00000050: b9aa 153e 5781 b4bd 3edb a6be 5438 05be
00000060: 3ba5 3d3e 66c9 0abe 9c77 22bd 929e 183c
00000070: 9cad fabd 5df1 3d3e 34e3 abbb 2356 01be
00000080: e2dd 203a b1a6 c7bd 74a5 1e3e 9d8d 83bd
00000090: 4b3d 003e 08c4 77bc 8e29 9ebd c700 27be
000000a0: 310c d53c 3b40 0abd a81b 9fbd 0dfa 84bd
000000b0: 5adf 1dbe 9d70 6c3e 3679 d03d 8d7b 9abd
000000c0: 0ac1 963b 32b3 933d 4bab 9bbd e5d0 ecbd
000000d0: 5681 7abe 95a4 db3d a860 42be a9b4 883c
000000e0: e19b a1bc 122b ec3b 1c8d e4bd 31bc 02be
000000f0: 68dc ff3d 8616 f6bc 675f 1dbe c603 1dbe

h.2.mlp.c_proj.bias_resize f4 [4]
-0.06543963 0.10812346 0.04286131 -0.27609614
00000000: 3605 86bd d56f dd3d 578f 2f3d 795c 8dbe

h.2.mlp.c_proj.weight_resize f4 [16, 4]
-0.023983307 -0.2091073 -0.029130422 -0.014159054 0.12426523 0.022582456 -0.11774962 -0.05388945
-0.064429305 -0.049691588 -0.09849437 -0.015137517 -0.17652999 -0.15153034 0.012728425 0.034259573
0.1514068 0.0797339 -0.03716765 -0.14797361 0.10649948 -0.15134713 -0.011439351 -0.118644826
-0.034362342 -0.034697093 0.03555541 -0.16158712 0.02370114 -0.06971587 -0.04155804 0.12683882
0.099746205 -0.047324862 -0.07336224 -0.11146781 -0.0876391 -0.016490895 0.10243594 0.06768334
-0.06350969 0.01531703 0.19918339 0.107610025 -0.1624439 -0.045606796 0.085458614 -0.031378485
0.17306851 0.025543084 0.08989682 -0.1108501 0.016017485 0.033620592 0.020473994 0.084206395
0.17558926 -0.033137046 -0.026362205 -0.050771534 -0.12730269 -0.06424091 -0.13373356 -0.074417084
00000000: a478 c4bc 3920 56be eca2 eebc 60fb 67bc
00000010: c57e fe3d d8fe b83c b626 f1bd 2fbb 5cbd
00000020: 83f3 83bd 6889 4bbd 6bb7 c9bd 5903 78bc
00000030: 47c4 34be c52a 1bbe e28a 503c c453 0c3d
00000040: 620a 1b3e 874b a33d 1b3d 18bd 6586 17be
00000050: 661c da3d befa 1abe 1e6c 3bbc 0ffc f2bd
00000060: 87bf 0cbd 8a1e 0ebd 8da2 113d 1877 25be
00000070: e528 c23c 32c7 8ebd c338 2abd 09e2 013e
00000080: bd47 cc3d b7d7 41bd f13e 96bd 3c49 e4bd
00000090: 217c b3bd ea17 87bc efc9 d13d 909d 8a3d
000000a0: 5e11 82bd 48f4 7a3c bbf6 4b3e a562 dc3d
000000b0: b257 26be 31ce 3abd ed04 af3d ba86 00bd
000000c0: df38 313e bb3f d13c d31b b83d 6105 e3bd
000000d0: 1a37 833c bfb5 093d 14b9 a73c 6774 ac3d
000000e0: accd 333e b6ba 07bd 8df5 d7bc d0f5 4fbd
000000f0: a35b 02be bd90 83bd 73f1 08be fc67 98bd

h.3.attn.bias_resize f4 [1, 1, 8, 8]
1.0 0.0 0.0 0.0 0.0 0.0 0.0 0.0
1.0 1.0 0.0 0.0 0.0 0.0 0.0 0.0
1.0 1.0 1.0 0.0 0.0 0.0 0.0 0.0
1.0 1.0 1.0 1.0 0.0 0.0 0.0 0.0
1.0 1.0 1.0 1.0 1.0 0.0 0.0 0.0
1.0 1.0 1.0 1.0 1.0 1.0 0.0 0.0
1.0 1.0 1.0 1.0 1.0 1.0 1.0 0.0
1.0 1.0 1.0 1.0 1.0 1.0 1.0 1.0
00000000: 0000 803f 0000 0000 0000 0000 0000 0000
00000010: 0000 0000 0000 0000 0000 0000 0000 0000
00000020: 0000 803f 0000 803f 0000 0000 0000 0000
00000030: 0000 0000 0000 0000 0000 0000 0000 0000
00000040: 0000 803f 0000 803f 0000 803f 0000 0000
00000050: 0000 0000 0000 0000 0000 0000 0000 0000
00000060: 0000 803f 0000 803f 0000 803f 0000 803f
00000070: 0000 0000 0000 0000 0000 0000 0000 0000
00000080: 0000 803f 0000 803f 0000 803f 0000 803f
00000090: 0000 803f 0000 0000 0000 0000 0000 0000
000000a0: 0000 803f 0000 803f 0000 803f 0000 803f
000000b0: 0000 803f 0000 803f 0000 0000 0000 0000
000000c0: 0000 803f 0000 803f 0000 803f 0000 803f
000000d0: 0000 803f 0000 803f 0000 803f 0000 0000
000000e0: 0000 803f 0000 803f 0000 803f 0000 803f
000000f0: 0000 803f 0000 803f 0000 803f 0000 803f

h.3.attn.c_attn.bias_resize f4 [12]
-0.22508495 -0.06443759 0.022315053 0.31940836 0.5908807 0.16168332 0.38775626 -0.50703704
0.41563275 0.45957014 -0.08498618 -0.004274862
00000000: ab7c 66be dbf7 83bd 0fce b63c 7e89 a33e
00000010: f543 173f 5090 253e fd87 c63e 2ecd 01bf
00000020: d1cd d43e c74c eb3e 3c0d aebd 2414 8cbb

h.3.attn.c_attn.weight_resize f4 [4, 12]
-0.017998688 -0.1332703 0.1338868 0.062276687 0.22241196 -0.23065701 0.024504544 -0.05868314
-0.045156803 0.15703109 -0.02082259 -0.28043497 0.06429898 -0.14252727 -0.21241428 -0.05890434
0.024974357 0.06478453 0.07813402 0.10860547 -0.15390857 -0.277332 0.33969027 -0.2660298
0.23708083 0.0792275 0.16655837 0.0949192 -0.1638316 0.02997495 0.09740334 0.24982338
0.005296847 -0.3058585 -0.41605395 -0.21357022 0.049961537 -0.053370826 -0.20365845 -0.06885823
-0.0065880353 -0.019698968 0.06448757 -0.122767635 -0.28338128 0.55986387 0.10499729 -0.27942866
00000000: fc71 93bc 0278 08be 9f19 093e d715 7f3d
00000010: f6bf 633e 5a31 6cbe c1bd c83c bb5d 70bd
00000020: 57f6 38bd c2cc 203e 2394 aabc 2c95 8fbe
00000030: 2faf 833d abf2 11be 2183 59be ad45 71bd
00000040: 0697 cc3c c0ad 843d bb04 a03d 8b6c de3d
00000050: 359a 1dbe 76fe 8dbe e2eb ad3e 0f35 88be
00000060: 51c5 723e 0742 a23d 478e 2a3e ff64 c23d
00000070: 79c3 27be 078e f53c 677b c73d b3d1 7f3e
00000080: 2c91 ad3b 7c99 9cbe 0605 d5be 27b2 5abe
00000090: 78a4 4c3d 5e9b 5abd d78b 50be 8b05 8dbd
000000a0: 72e0 d7bb bb5f a1bc 0f12 843d 996d fbbd
000000b0: 5a17 91be 3d53 0f3f d208 d73d 4611 8fbe

h.3.attn.c_proj.bias_resize f4 [4]
-0.014248298 -0.24037582 -0.018260201 0.11563233
00000000: b171 69bc 1425 76be 6b96 95bc a5d0 ec3d

h.3.attn.c_proj.weight_resize f4 [4, 4]
0.06602838 -0.005861711 -0.03592158 -0.1732167 0.12393592 0.040365994 0.05313993 0.15676306
0.006105948 -0.041657925 0.04783846 0.09601136 -0.0033824649 -0.021247769 -0.14731905 -0.16844277
00000000: e339 873d 9913 c0bb 8222 13bd b85f 31be
00000010: 1ed2 fd3d d056 253d 41a9 593d 7f86 203e
00000020: 6714 c83b 80a1 2abd 43f2 433d 9ba1 c43d
00000030: 58ac 5dbb cd0f aebc ceda 16be 437c 2cbe

h.3.ln_1.bias_resize f4 [4]
0.023561038 0.004005239 0.010817339 0.010145771
00000000: 1403 c13c 613e 833b 353b 313c 733a 263c

h.3.ln_1.weight_resize f4 [4]
0.27246326 0.30780128 0.31737384 0.34978366
00000000: 4e80 8b3e 2198 9d3e d37e a23e d816 b33e

h.3.ln_2.bias_resize f4 [4]
0.021957329 0.035705194 0.04064952 -0.025932105
00000000: dbdf b33c 9c3f 123d 1c80 263d 916f d4bc

h.3.ln_2.weight_resize f4 [4]
0.28222546 0.31312156 0.3034004 0.3393371
00000000: db7f 903e 7851 a03e 4c57 9b3e 98bd ad3e

h.3.mlp.c_fc.bias_resize f4 [16]
-0.19918692 0.022447415 -0.19890374 0.055224687 -0.15379554 -0.18020447 -0.15730286 0.04759987
0.10020586 -0.109667815 0.005744914 -0.0069503654 -0.14469719 -0.09104212 -0.122514024 -0.17581186
00000000: a8f7 4bbe a4e3 b73c 6cad 4bbe 4833 623d
00000010: 947c 1dbe 8587 38be 0014 21be 15f8 423d
00000020: bb38 cd3d 8599 e0bd d53f bc3b e4bf e3bb
00000030: 802b 14be 4a74 babd a2e8 fabd 0608 34be

h.3.mlp.c_fc.weight_resize f4 [4, 16]
-0.03539655 -0.008277714 -0.08996621 0.08954035 0.0022400862 -0.08625675 -0.45353743 -0.014603741
-0.0006685064 0.010672328 0.13158508 -0.03614513 -0.28770688 -0.05337035 -0.074287064 -0.061829377
-0.12732677 -0.05610259 -0.07339952 0.04915861 0.012854202 -0.0989294 -0.26228067 -0.104131095
-0.059370197 0.12496441 -0.055508897 0.030041143 0.15702024 -0.18218549 0.018887183 -0.12964702
0.026883842 -0.08544186 -0.21569555 0.028883051 0.19102713 0.10992453 -0.10239933 0.038034283
0.03560775 0.008196247 -0.10060285 0.0036448652 -0.07981165 -0.003259983 0.027315987 0.015305902
0.083694115 0.020357322 0.23642202 -0.073175035 0.009504295 0.11654223 -0.008576725 -0.12848563
0.051653206 -0.09154644 -0.0074880566 0.11704091 -0.11153363 0.03147051 0.02103365 0.07869726
00000000: f9fb 10bd 409f 07bc 3440 b8bd ee60 b73d
00000010: 69ce 123b 61a7 b0bd 0f36 e8be 8744 6fbc
00000020: b53e 2fba fdda 2e3c 3dbe 063e ea0c 14bd
00000030: 514e 93be de9a 5abd d123 98bd cd40 7dbd
00000040: f361 02be d4cb 65bd 7d52 96bd 8a5a 493d
00000050: 6e9a 523c 7f9b cabd a749 86be af42 d5bd
00000060: 2a2e 73bd 57ed ff3d 4c5d 63bd d818 f63c
00000070: eac9 203e d58e 3abe 4bb9 9a3c 30c2 04be
00000080: 813b dc3c 24fc aebd 4bdf 5cbe 269c ec3c
00000090: 9e9c 433e 1d20 e13d bdb6 d1bd d6c9 1b3d
000000a0: 6fd9 113d 8d49 063c de08 cebd b1de 6e3b
000000b0: 4a74 a3bd 70a5 55bb c7c5 df3c 9bc5 7a3c
000000c0: d267 ab3d 66c4 a63c 9d18 723e cbdc 95bd
000000d0: e7b7 1b3c b1ad ee3d 6485 0cbc bd91 03be
000000e0: 5092 533d b37c bbbd 5f5e f5bb 25b3 ef3d
000000f0: be6b e4bd 39e7 003d c34e ac3c 072c a13d

h.3.mlp.c_proj.bias_resize f4 [4]
-0.023284795 0.105635814 -0.053138375 -0.09454121
00000000: c1bf bebc 9757 d83d a0a7 59bd d29e c1bd

h.3.mlp.c_proj.weight_resize f4 [16, 4]
0.07660454 0.0050295824 -0.081851795 -0.04126458 0.024860458 -0.0027823013 0.041804764 -0.011428611
0.023360306 0.07915406 0.036771342 -0.040141378 -0.0007177721 0.007178153 0.04820271 0.027043557
0.025351724 0.16788688 -0.03438381 0.058767192 -0.05521786 0.1598677 0.040628705 0.099935316
-0.14867042 0.020573754 0.033374332 -0.06499096 0.023991715 0.029285373 -0.038230732 0.024395727
0.020952055 0.12212978 0.13394217 -0.03968148 -0.08219841 0.05497019 0.00930187 0.09935806
0.035298605 -0.0042721946 0.18874392 -0.09343084 -0.040585663 -0.009368686 0.032715846 -0.010239838
-0.0302186 -0.0014221376 -0.05662394 0.01934686 0.031507734 0.18261445 0.09665955 0.09012717
0.080159515 0.06894113 -0.032215383 -0.09080348 0.076069355 -0.07702551 -0.0064581744 -0.08431377
00000000: d7e2 9c3d 32cf a43b eaa1 a7bd 0c05 29bd
00000010: 29a8 cb3c 4557 36bb 793b 2b3d 123f 3bbc
00000020: 1d5e bf3c 861b a23d 8c9d 163d 496b 24bd
00000030: df28 3cba b636 eb3b 3470 453d 738a dd3c
00000040: 6bae cf3c 8aea 2b3e 0ad6 0cbd deb5 703d
00000050: 1f2c 62bd 5cb4 233e 496a 263d e3aa cc3d
00000060: 0f3d 18be 4a8a a83c 86b3 083d fb19 85bd
00000070: 468a c43c e1e7 ef3c d497 1cbd 8cd9 c73c
00000080: a5a3 ab3c 2e1f fa3d 2328 093e 0c89 22bd
00000090: a457 a8bd 6c28 613d df66 183c 3d7c cb3d
000000a0: 4595 103d c4fd 8bbb 1646 413e ab58 bfbd
000000b0: 273d 26bd 1e7f 19bc 0d01 063d fec4 27bc
000000c0: ff8c f7bc 0567 baba 81ee 67bd 4e7d 9e3c
000000d0: 410e 013d 48ff 3a3e 71f5 c53d 9894 b83d
000000e0: ac2a a43d 0231 8d3d 47f4 03bd 2df7 b9bd
000000f0: 40ca 9b3d 8dbf 9dbd 189f d3bb b3ac acbd

h.4.attn.bias_resize f4 [1, 1, 8, 8]
1.0 0.0 0.0 0.0 0.0 0.0 0.0 0.0
1.0 1.0 0.0 0.0 0.0 0.0 0.0 0.0
1.0 1.0 1.0 0.0 0.0 0.0 0.0 0.0
1.0 1.0 1.0 1.0 0.0 0.0 0.0 0.0
1.0 1.0 1.0 1.0 1.0 0.0 0.0 0.0
1.0 1.0 1.0 1.0 1.0 1.0 0.0 0.0
1.0 1.0 1.0 1.0 1.0 1.0 1.0 0.0
1.0 1.0 1.0 1.0 1.0 1.0 1.0 1.0
00000000: 0000 803f 0000 0000 0000 0000 0000 0000
00000010: 0000 0000 0000 0000 0000 0000 0000 0000
00000020: 0000 803f 0000 803f 0000 0000 0000 0000
00000030: 0000 0000 0000 0000 0000 0000 0000 0000
00000040: 0000 803f 0000 803f 0000 803f 0000 0000
00000050: 0000 0000 0000 0000 0000 0000 0000 0000
00000060: 0000 803f 0000 803f 0000 803f 0000 803f
00000070: 0000 0000 0000 0000 0000 0000 0000 0000
00000080: 0000 803f 0000 803f 0000 803f 0000 803f
00000090: 0000 803f 0000 0000 0000 0000 0000 0000
000000a0: 0000 803f 0000 803f 0000 803f 0000 803f
000000b0: 0000 803f 0000 803f 0000 0000 0000 0000
000000c0: 0000 803f 0000 803f 0000 803f 0000 803f
000000d0: 0000 803f 0000 803f 0000 803f 0000 0000
000000e0: 0000 803f 0000 803f 0000 803f 0000 803f
000000f0: 0000 803f 0000 803f 0000 803f 0000 803f

h.4.attn.c_attn.bias_resize f4 [12]
-0.030168336 0.10533975 0.15787463 0.024759537 -0.006538494 0.060618676 0.088399954 -0.13495968
-0.020193778 0.12939753 -0.081561916 0.34852737
00000000: 9623 f7bc 5ebc d73d e3a9 213e 83d4 ca3c
00000010: dd40 d6bb 4a4b 783d 090b b53d df32 0abe
00000020: 6c6d a5bc c980 043e ef09 a7bd 2e72 b23e

h.4.attn.c_attn.weight_resize f4 [4, 12]
0.05423329 0.103687726 -0.12026901 0.22412933 0.07213355 -0.10475269 -0.0981237 -0.036319356
0.3400251 0.116684884 0.38467214 -0.045520157 0.31112784 -0.33790025 -0.04488772 0.044097334
-0.28659078 0.14701933 -0.08493118 -0.29630655 0.11203756 -0.17639239 -0.12024751 -0.11240516
0.03945691 -0.10409697 -0.14039643 0.21136703 0.063462675 0.0659867 -0.01819236 -0.005754013
-0.24563295 -0.08045138 -0.06925673 0.03999863 -0.17338733 0.26603755 -0.18614697 0.056698415
0.0762337 -0.36798367 -0.20420328 -0.047622304 0.20764309 0.050370153 -0.27387056 -0.00865877
00000000: ba23 5e3d 3b5a d43d 994f f6bd 2982 653e
00000010: c1ba 933d 9488 d6bd 14f5 c8bd 9bc3 14bd
00000020: c517 ae3e 7cf8 ee3d bff3 c43e 5873 3abd
00000030: 264c 9f3e 4301 adbe 30dc 37bd 689f 343d
00000040: 07bc 92be 3c8c 163e 66f0 adbd 7eb5 97be
00000050: f373 e53d 35a0 34be 5444 f6bd ad34 e6bd
00000060: 929d 213d cb30 d5bd 15c4 0fbe 9970 583e
00000070: b8f8 813d 0924 873d 2508 95bc 298c bcbb
00000080: 3487 7bbe b1c3 a4bd 79d6 8dbd 9ad5 233d
00000090: 738c 31be 1336 883e 509d 3ebe 993c 683d
000000a0: 6a20 9c3d 5b68 bcbe aa1a 51be 9b0f 43bd
000000b0: 64a0 543e ef50 4e3d c338 8cbe 83dd 0dbc

h.4.attn.c_proj.bias_resize f4 [4]
-0.13346902 -0.1202367 -0.01996724 -0.017336693
00000000: 1aac 08be a93e f6bd 5692 a3bc ae05 8ebc

h.4.attn.c_proj.weight_resize f4 [4, 4]
0.122041956 -0.0009472258 0.020139841 -0.04139546 -0.0047749286 -0.018160297 -0.119241856 -0.059304528
-0.028456511 0.02737191 0.14944072 -0.02944938 -0.009773519 -0.02984521 -0.023913708 0.023738699
00000000: 22f1 f93d 3f4f 78ba 4ffc a43c 498e 29bd
00000010: 0177 9cbb e7c4 94bc 1335 f4bd 4ee9 72bd
00000020: a11d e9bc 0e3b e03c fd06 193e d33f f1bc
00000030: 1c21 20bc f17d f4bc aee6 c3bc a977 c23c

h.4.ln_1.bias_resize f4 [4]
0.022364201 0.006052014 0.015801301 0.010794089
00000000: 2135 b73c f94f c63b bb71 813c b1d9 303c

h.4.ln_1.weight_resize f4 [4]
0.2971425 0.33302215 0.34278038 0.33753645
00000000: 1023 983e e181 aa3e e980 af3e 94d1 ac3e

h.4.ln_2.bias_resize f4 [4]
0.035818 0.0013955077 0.02834336 0.008547329
00000000: e5b5 123d 78e9 b63a 5630 e83c 190a 0c3c

h.4.ln_2.weight_resize f4 [4]
0.25683478 0.26072815 0.27832046 0.2811467
00000000: d97f 833e 297e 853e 0580 8e3e 76f2 8f3e

h.4.mlp.c_fc.bias_resize f4 [16]
-0.06427579 -0.29860806 -0.11274097 -0.16950938 -0.029283864 0.015383693 -0.05979858 -0.21982494
-0.111098535 -0.02504181 -0.17913005 -0.04023922 -0.1525516 -0.14760906 -0.056135822 -0.08194784
00000000: 06a3 83bd 28e3 98be bde4 e6bd de93 2dbe
00000010: b7e4 efbc e30b 7c3c 5bef 74bd ca19 61be
00000020: a187 e3bd 7b24 cdbc de6d 37be e1d1 24bd
00000030: 7d36 1cbe d426 17be adee 65bd 45d4 a7bd

h.4.mlp.c_fc.weight_resize f4 [4, 16]
-0.00040779955 -0.120037995 -0.01231019 -0.24376054 0.13285102 0.13179974 0.026352458 0.05735661
-0.0682818 -0.016869076 0.049044106 -0.3784017 -0.035310805 0.43567172 0.029768394 -0.06014109
0.012093113 -0.061387707 -0.07896231 0.1001609 -0.057753433 -0.12625913 -0.09318832 0.017602889
0.083729364 0.0097207595 0.13964899 -0.016074734 -0.06527597 -0.050643615 -0.07721222 0.10445738
-0.035863258 0.21450137 0.081208535 0.12765494 -0.14576924 -0.039658498 -0.08208598 -0.07409629
-0.01379946 -0.18196641 -0.05067827 0.07862024 -0.038654067 0.1287405 -0.10514576 0.0056491694
-0.07548215 0.19024332 0.027319381 -0.005802837 0.16483375 0.010557608 0.12395796 0.14127462
0.068000264 0.025731213 -0.20800139 0.30212593 0.2542231 -0.17108168 -0.14348243 0.026042078
00000000: eecd d5b9 7bd6 f5bd aeb0 49bc 5d9c 79be
00000010: 190a 083e 83f6 063e 1ce1 d73c c4ee 6a3d
00000020: 54d7 8bbd 0431 8abc 79e2 483d debd c1be
00000030: 10a2 10bd 5d10 df3e d9dc f33c 8156 76bd
00000040: 3122 463c ad71 7bbd feb6 a1bd 2821 cd3d
00000050: dd8e 6cbd 134a 01be 85d9 bebd ef33 903c
00000060: 4d7a ab3d d243 1f3c 2500 0f3e 29af 83bc
00000070: 68af 85bd ae6f 4fbd 7121 9ebd c0ed d53d
00000080: 5ae5 12bd 3fa6 5b3e a950 a63d fab7 023e
00000090: 8844 15be f370 22bd b21c a8bd ccbf 97bd
000000a0: 2117 62bc 6755 3abe 0594 4fbd a603 a13d
000000b0: ba53 1ebd 8dd4 033e a956 d7bd ab1c b93b
000000c0: 6396 9abd 25cf 423e e5cc df3c ba25 bebb
000000d0: 2eca 283e d1f9 2c3c acdd fd3d 4baa 103e
000000e0: b943 8b3d 44ca d23c 51fe 54be 40b0 9a3e
000000f0: 8829 823e 0930 2fbe 0fed 12be 3256 d53c

h.4.mlp.c_proj.bias_resize f4 [4]
-0.05897606 0.15732403 -0.08401918 -0.043562435
00000000: e290 71bd 8d19 213e 3f12 acbd 866e 32bd

h.4.mlp.c_proj.weight_resize f4 [16, 4]
-0.01658924 0.033356477 -0.025944792 -0.06458347 -0.080376394 0.013952165 0.13485622 0.009138665
-0.07573886 0.006609701 0.090172976 -0.073925234 -0.028329737 -0.00016443492 -0.04531367 -0.1046352
-0.27050063 0.08157199 -0.070864215 -0.06629436 -0.05577094 -0.06642898 0.05472588 0.00057236454
0.087077886 0.013595282 -0.036721863 -0.1071712 -0.11530476 -0.102033064 0.05495428 0.04225584
0.0042050397 -0.101635195 0.08068427 0.17710103 -0.031157333 0.023664894 0.18852963 0.06135471
-0.0052178376 -0.0072172447 0.029249646 0.11915769 -0.06256321 0.09658193 0.033046216 0.09941497
-0.00061540713 -0.11320812 -0.027635314 -0.011693599 0.05588442 0.04503211 0.037118543 -0.03498106
0.026250299 -0.0025293948 -0.05758205 -0.039056182 0.079832226 0.014638417 0.046388082 -0.040828656
00000000: 28e6 87bc cda0 083d 2c8a d4bc 5744 84bd
00000010: 619c a4bd 9f97 643c c017 0a3e 57ba 153c
00000020: fa1c 9bbd 3196 d83b 9cac b83d 1d66 97bd
00000030: c413 e8bc 2a6c 2cb9 d49a 39bd fb4a d6bd
00000040: 0f7f 8abe 370f a73d 4221 91bd 56c5 87bd
00000050: 1270 64bd eb0b 88bd 3f28 603d bc0a 163a
00000060: e455 b23d bfbe 5e3c aa69 16bd 937c dbbd
00000070: e724 ecbd b6f6 d0bd bd17 613d 7614 2d3d
00000080: 6eca 893b 1d26 d0bd cb3d a53d f959 353e
00000090: aa3d ffbc e1dc c13c e90d 413e 144f 7b3d
000000a0: 65fa aabb a37e ecbb f49c ef3c f208 f43d
000000b0: 2421 80bd bfcc c53d 785b 073d 139a cb3d
000000c0: 4653 21ba a9d9 e7bd 7463 e2bc 8296 3fbc
000000d0: 10e7 643d 9773 383d 9d09 183d 4d48 0fbd
000000e0: de0a d73c 34c4 25bb 28db 6bbd 60f9 1fbd
000000f0: 147f a33d f9d5 6f3c 6e01 3e3d f33b 27bd

h.5.attn.bias_resize f4 [1, 1, 8, 8]
1.0 0.0 0.0 0.0 0.0 0.0 0.0 0.0
1.0 1.0 0.0 0.0 0.0 0.0 0.0 0.0
1.0 1.0 1.0 0.0 0.0 0.0 0.0 0.0
1.0 1.0 1.0 1.0 0.0 0.0 0.0 0.0
1.0 1.0 1.0 1.0 1.0 0.0 0.0 0.0
1.0 1.0 1.0 1.0 1.0 1.0 0.0 0.0
1.0 1.0 1.0 1.0 1.0 1.0 1.0 0.0
1.0 1.0 1.0 1.0 1.0 1.0 1.0 1.0
00000000: 0000 803f 0000 0000 0000 0000 0000 0000
00000010: 0000 0000 0000 0000 0000 0000 0000 0000
00000020: 0000 803f 0000 803f 0000 0000 0000 0000
00000030: 0000 0000 0000 0000 0000 0000 0000 0000
00000040: 0000 803f 0000 803f 0000 803f 0000 0000
00000050: 0000 0000 0000 0000 0000 0000 0000 0000
00000060: 0000 803f 0000 803f 0000 803f 0000 803f
00000070: 0000 0000 0000 0000 0000 0000 0000 0000
00000080: 0000 803f 0000 803f 0000 803f 0000 803f
00000090: 0000 803f 0000 0000 0000 0000 0000 0000
000000a0: 0000 803f 0000 803f 0000 803f 0000 803f
000000b0: 0000 803f 0000 803f 0000 0000 0000 0000
000000c0: 0000 803f 0000 803f 0000 803f 0000 803f
000000d0: 0000 803f 0000 803f 0000 803f 0000 0000
000000e0: 0000 803f 0000 803f 0000 803f 0000 803f
000000f0: 0000 803f 0000 803f 0000 803f 0000 803f
